autoencoder.tflite (tflite, 4380 bytes, 10 tensors)

sequential_2/dense_14/BiasAdd/ReadVariableOp f4 [16]
0	0xbe4db8e3	-0.2009006
1	0x3f15c6d5	0.5850652
2	0xbdf6b536	-0.12046282
3	0x3d9bfd04	0.07616618
4	0xbe56a7a3	-0.20962386
5	0xbe3b37d6	-0.18283018
6	0xbe85e803	-0.26153573
7	0xbe12b39a	-0.14326325
8	0xbe5246de	-0.20534846
9	0xbe50fad3	-0.20408182
10	0xbe8379c5	-0.2567884
11	0xbe5df1cd	-0.21674271
12	0xbe3bcc9e	-0.18339774
13	0xbe460950	-0.1933949
14	0xbe60d7e5	-0.21957357
15	0xbe25390d	-0.16135044

sequential_2/dense_13/BiasAdd/ReadVariableOp f4 [8]
0	0x3e4472cc	0.19184417
1	0x3dcc335d	0.09970734
2	0x00000000	0.0
3	0x3de65385	0.11246399
4	0x3e9d07c9	0.30670002
5	0xbcdfc5d4	-0.027316011
6	0x00000000	0.0
7	0x3e28613a	0.16443339

sequential_2/dense_12/BiasAdd/ReadVariableOp f4 [4]
0	0x3e4d8d01	0.2007332
1	0x3ec76944	0.389475
2	0x3b026493	0.0019896373
3	0x3e8d9986	0.27656192

sequential_2/dense_11/BiasAdd/ReadVariableOp f4 [4]
0	0x3e92fb22	0.28707224
1	0xbd0a719a	-0.033799745
2	0x3f10e6b0	0.56602
3	0x3e8aa9ae	0.2708258

sequential_2/dense_10/BiasAdd/ReadVariableOp f4 [8]
0	0x3eaae0ec	0.33374727
1	0xbd8d133c	-0.06888434
2	0xbd2183d2	-0.039432354
3	0x3ecd81bb	0.4013804
4	0x3ef708bd	0.48248854
5	0x00000000	0.0
6	0x00000000	0.0
7	0xbf0efddc	-0.5585611

sequential_2/dense_10/MatMul f4 [8, 16]
0	0x3f44b107	0.7683262
1	0xbeb86976	-0.3601796
2	0xbd331b56	-0.04372724
3	0x3f7b9a81	0.9828263
4	0x3ef65328	0.48110318
5	0x3dce6b7e	0.10079096
6	0xbe43529a	-0.19074479
7	0x3ead7cfb	0.33884415
8	0x3d2ed438	0.042682856
9	0xbedb3472	-0.4281345
10	0xbf20c87a	-0.628059
11	0xbbc75ec0	-0.006084293
12	0xbef7fc77	-0.48434803
13	0x3f41ef3b	0.7575566
14	0xbf7762f2	-0.96635354
15	0xbee03612	-0.43791252
16	0x3eb2f4dd	0.3495244
17	0xbef55d37	-0.4792268
18	0x3ebdbd17	0.37058327
19	0xbe3736ff	-0.17892073
20	0xbeceb42a	-0.4037183
21	0x3ea0e939	0.31427935
22	0xbdd50ad0	-0.10402453
23	0xbe1d0cb2	-0.15336874
24	0xbeecbcd2	-0.46237808
25	0x3eb2f924	0.34955704
26	0x3d605c4b	0.054775517
27	0x3cefacc5	0.029257188
28	0x3ebe67b3	0.3718849
29	0x3ed4fba9	0.4159825
30	0xbee38ed0	-0.44444895
31	0xbeb83904	-0.35981
32	0x3e052ae5	0.13004644
33	0xbe1ee2af	-0.1551616
34	0x3dfa6f45	0.12228254
35	0xbd99a891	-0.075028546
36	0xbeb5b12d	-0.35486737
37	0xbeb74a8e	-0.35799068
38	0xbe0308b5	-0.1279629
39	0xbee7392d	-0.4516081
40	0xbd3fe39d	-0.04684793
41	0x3e073f8b	0.13207833
42	0x3e620848	0.22073472
43	0xbef07b71	-0.46969178
44	0xbe4d530c	-0.20051211
45	0x3e3f56a9	0.18685402
46	0x3ed935e7	0.42423937
47	0x3e8c9d23	0.27463636
48	0x3e407423	0.18794303
49	0x3cb365c3	0.02189911
50	0x3f425329	0.7590814
51	0x3f80544c	1.0025725
52	0x3ea44a88	0.32088113
53	0xbc95fee5	-0.01831002
54	0x3f2f043b	0.6836583
55	0x3f114def	0.5675954
56	0x3e061e25	0.13097437
57	0xbeff151c	-0.49820793
58	0x3e3edb68	0.18638384
59	0x3ec4b513	0.384194
60	0xbf26dee6	-0.65183866
61	0x3e3f320a	0.18671432
62	0xbf05f0bf	-0.52320474
63	0x3e9de326	0.30837363
64	0x3ed0103a	0.4063738
65	0x3f20cf49	0.6281629
66	0x3f1c8b83	0.6115038
67	0x3ed7ea02	0.4217072
68	0x3eb4d09c	0.35315406
69	0xbd760320	-0.060061574
70	0x3f3d84e7	0.7403092
71	0x3c3c7d44	0.011504475
72	0xbe3df6fc	-0.18551248
73	0x3d2a1341	0.04152227
74	0x3ce71238	0.02820693
75	0x3ef4cc91	0.47812322
76	0x3ebfce16	0.3746192
77	0x3effb8ad	0.49945584
78	0x3cb6ccf3	0.022314524
79	0x3f522122	0.82081807
80	0x3ee60204	0.44923413
81	0xbef4e2cc	-0.47829282
82	0xbdd075a0	-0.10178685
83	0xbebee8dc	-0.37287033
84	0x3dded430	0.10880315
85	0xbd17d980	-0.03707266
86	0x3ec5f1b8	0.3866098
87	0x3ee5305c	0.44763458
88	0x3e4e4bd8	0.2014612
89	0x3e8c69e8	0.2742455
90	0xbe9f9038	-0.31164718
91	0xbe393b28	-0.18088973
92	0xbcb03200	-0.021508217
93	0x3e359730	0.17733455
94	0xbee320c8	-0.44360948
95	0xbec9039c	-0.39260566
96	0x3da87850	0.08226073
97	0xbef4600c	-0.47729528
98	0xbd361460	-0.044453025
99	0x3ccfb840	0.025356412
100	0xbe452f08	-0.19256222
101	0xbe80509c	-0.250615
102	0x3ea50b70	0.3223529
103	0xbef86008	-0.48510766
104	0xbdacc850	-0.08436644
105	0xbdc83060	-0.09774852
106	0x3eb9fe70	0.36326933
107	0x3ece22cc	0.40260923
108	0xbd51b7a0	-0.05120051
109	0x3efb5f24	0.49096024
110	0xbe39f820	-0.18161058
111	0x3d191240	0.03737092
112	0x3f28b8fd	0.6590727
113	0x3f31e59e	0.69490993
114	0x3f8bc5e7	1.091977
115	0x3f9bfc77	1.2186421
116	0x3f8b02a7	1.0860184
117	0x3f0e4b5b	0.55583733
118	0x3f7f2e6b	0.99680203
119	0x3f437f4d	0.7636612
120	0x3fad945f	1.3560904
121	0x3e747c2a	0.2387549
122	0x3f109ee0	0.56492424
123	0x3f490147	0.78517574
124	0xbf6d7fb8	-0.9277301
125	0xbf212a82	-0.62955487
126	0xbf4c0f2d	-0.79710656
127	0xbf697b2b	-0.91203564

sequential_2/dense_11/MatMul f4 [4, 8]
0	0x3ed6f155	0.41980997
1	0x3c80d25f	0.015725313
2	0xbf09a0cf	-0.53761
3	0x3f62ac17	0.8854384
4	0x3f380351	0.7188006
5	0x3ec6c6da	0.38823587
6	0xbe0aba7c	-0.135477
7	0xbf3ed34b	-0.7454116
8	0x3eed4535	0.46341863
9	0xbebb086f	-0.36529872
10	0x3ef28d28	0.4737332
11	0xbe9d0dce	-0.30674595
12	0xbe3423d8	-0.17591798
13	0xbf0c55cf	-0.54818434
14	0xbeed9542	-0.46402937
15	0xbdd73a49	-0.10509164
16	0x3dce14ca	0.10062559
17	0x3e0e4146	0.13892087
18	0x3e8bc227	0.27296564
19	0x3f01b4b1	0.5066634
20	0x3f3d8044	0.7402384
21	0x3dc9ccb0	0.09853494
22	0xbe916b45	-0.28402153
23	0xc010d022	-2.2627034
24	0x3f8eb981	1.1150361
25	0xbe78f7ec	-0.24313325
26	0xbf1d6742	-0.61485684
27	0x3f2f4f4d	0.6848038
28	0xbcb6a7c8	-0.022296801
29	0xbe74b746	-0.23898038
30	0x3e012844	0.12613016
31	0xbfb68c20	-1.4261513

sequential_2/dense_12/MatMul f4 [4, 4]
0	0x3ebc79d7	0.36811706
1	0xbf27afbe	-0.65502536
2	0x3faafa7c	1.3357692
3	0x3ec91bf1	0.3927913
4	0x3fa4375b	1.2829393
5	0x3f1dff38	0.6171756
6	0xbe914b99	-0.2837799
7	0x3f32b6b4	0.6981003
8	0x3de6f496	0.1127712
9	0xbd51ef7a	-0.051253773
10	0xbf026080	-0.509285
11	0xbf1169da	-0.5680214
12	0x3f76df42	0.96434414
13	0x3eb7d0b1	0.35901406
14	0xbe9bff6c	-0.3046831
15	0x3f63eb66	0.89031065

sequential_2/dense_13/MatMul f4 [8, 4]
0	0xbe88af98	-0.26696467
1	0x3f0b6057	0.5444388
2	0x3ee703e1	0.45120147
3	0x3ed1218a	0.408459
4	0x3e835d3b	0.25657067
5	0x3e9b7c25	0.30368152
6	0xbf22b21b	-0.6355302
7	0x3ee581d5	0.44825616
8	0xbeb67f68	-0.35644078
9	0xbef1c766	-0.4722244
10	0x3eacb95a	0.33735162
11	0xbec61c98	-0.3869369
12	0x3f464ab6	0.7745775
13	0x3e9284ed	0.2861704
14	0xbd44876b	-0.047980707
15	0x3f45286d	0.7701481
16	0x3f682522	0.9068166
17	0x3f2eaa1c	0.68228316
18	0x3f0e0ae9	0.554854
19	0x3e46d592	0.19417408
20	0x3ef3fb16	0.476525
21	0xbe994dfa	-0.29942304
22	0xbef77a2e	-0.48335403
23	0xbe96d9e7	-0.2946312
24	0x3e4eaa58	0.20182168
25	0xbf0fb8e3	-0.5614149
26	0x3eb55062	0.3541289
27	0xbeb95b70	-0.36202574
28	0x3f6f3c3a	0.93451273
29	0x3f1e7b95	0.6190732
30	0x3eb3751f	0.35050294
31	0x3c2f30fb	0.01069283

sequential_2/dense_14/MatMul f4 [16, 8]
0	0x3ed8bafc	0.42330158
1	0x3ec72e02	0.3890229
2	0xbb7e6200	-0.0038815737
3	0xbc534f15	-0.012897273
4	0xbdeedaff	-0.11662864
5	0xbec7b15d	-0.39002505
6	0x3e3761e8	0.17908442
7	0xbef47ae8	-0.4775002
8	0x3ebf24ba	0.37332708
9	0xbdb70f8a	-0.08938511
10	0xbea39b04	-0.31954205
11	0xbeb503b9	-0.35354403
12	0x3d82dae8	0.06389409
13	0x3ec4141c	0.38296592
14	0x3ef407b0	0.47662115
15	0xbe205601	-0.15657808
16	0x3f0c7009	0.5485845
17	0xbe73db87	-0.23814212
18	0x3e0082d8	0.12549913
19	0x3e8d7adf	0.27632806
20	0xbee268ac	-0.44220483
21	0x3e30819b	0.1723694
22	0x3ce852c0	0.02835977
23	0xbe243bfa	-0.16038504
24	0x3eca8b40	0.39559364
25	0x3f261617	0.64877456
26	0x3e70ab48	0.23502839
27	0x3e16817f	0.14697836
28	0xbee6a7b2	-0.45049816
29	0x3dcf9080	0.10134983
30	0xbc1e7280	-0.009670854
31	0xbf0308f5	-0.5118554
32	0xbf36ec9f	-0.71454805
33	0x3daa2a75	0.08308879
34	0x3d135520	0.035969853
35	0xbf1e31ec	-0.61794925
36	0xbe082f94	-0.132994
37	0x3ea0ec51	0.31430295
38	0xbee7258c	-0.45145833
39	0xbe785f53	-0.24255113
40	0xbf44c83e	-0.76868045
41	0xbe81613b	-0.25269493
42	0x3e8fef5c	0.28112304
43	0x3c4bda6c	0.012442213
44	0xbf11d284	-0.56961846
45	0xbe82f49d	-0.2557725
46	0xbed0d010	-0.4078374
47	0xbe45a26c	-0.1930024
48	0xbf18c169	-0.5967012
49	0xbf08254b	-0.53181905
50	0x3c753180	0.014965415
51	0xbdb64054	-0.08898988
52	0xbef109d6	-0.47077817
53	0x3dd7a810	0.10530102
54	0xbe22b4f8	-0.15889347
55	0xbdfc2f7d	-0.12313745
56	0xbf0ca81e	-0.54944026
57	0xbe3e1c14	-0.18565398
58	0x3e7e3398	0.24824369
59	0xbee8d00d	-0.4547123
60	0xbe3631dd	-0.17792459
61	0x3ecf8557	0.40531418
62	0xbe7170f0	-0.23578238
63	0xbea33b88	-0.31881356
64	0xbeaba3ff	-0.33523557
65	0xbea0c6c4	-0.31401646
66	0x3e4ad0d8	0.1980623
67	0xbeb6115e	-0.35560125
68	0xbe886203	-0.26637277
69	0x3ed62b28	0.418298
70	0xbea75b00	-0.32686615
71	0xbdaa87e2	-0.08326699
72	0xbef6f25b	-0.48231778
73	0xbeb64a63	-0.35603628
74	0xbebbf5b8	-0.36710906
75	0xbe0c0284	-0.13672835
76	0xbf1f31d4	-0.62185407
77	0xbe874178	-0.26417136
78	0xbc73ee80	-0.014888406
79	0x3e307010	0.17230248
80	0xbf04a3ae	-0.51812255
81	0xbd9b31c9	-0.07577855
82	0x3d626e20	0.055280805
83	0xbf0b3dc6	-0.54391134
84	0xbdefcf70	-0.117094874
85	0xbe93f9a0	-0.28901386
86	0xbe547f70	-0.20751739
87	0xbdfa4014	-0.12219253
88	0xbee049af	-0.43806216
89	0xbec735db	-0.38908276
90	0x3e5cb7c8	0.21554482
91	0xbe843c33	-0.25827178
92	0x3de01f5e	0.10943483
93	0x3ebbbc24	0.36666977
94	0xbe124068	-0.14282382
95	0xbf082eaa	-0.53196204
96	0xbf21570a	-0.63023436
97	0xbf2b694b	-0.6695754
98	0xbead592c	-0.33857095
99	0xbd4986fa	-0.04920099
100	0xbf20130a	-0.6252905
101	0x3ef5ed6b	0.48032698
102	0x3c5aa600	0.013345242
103	0xbe6ac2be	-0.22925851
104	0xbf3043c3	-0.68853396
105	0xbe9187ea	-0.28424007
106	0x3e0c5618	0.13704717
107	0xbf4a80a2	-0.7910253
108	0xbe83b998	-0.25727534
109	0x3ef3c195	0.4760863
110	0xbe0e0560	-0.13869238
111	0x3cbfb3fc	0.023401253
112	0xbf69650e	-0.9116982
113	0xbe142433	-0.14466934
114	0xbea526b8	-0.32256103
115	0xbf36b8f9	-0.71375996
116	0xbdabcbd7	-0.08388489
117	0xbea83ac0	-0.32857323
118	0xbddd7b20	-0.108145
119	0xbe3bf34f	-0.18354534
120	0xbf85fbe3	-1.0467495
121	0xbf01f5be	-0.507656
122	0xbe064768	-0.13113177
123	0xbe378ee5	-0.17925604
124	0xbe95d330	-0.29262686
125	0xbeb7600d	-0.35815468
126	0xbdd98300	-0.106206894
127	0xbe82ae6f	-0.25523707
