dnn.tflite (tflite, 4484 bytes, 10 tensors)

sequential_1/dense_9/BiasAdd/ReadVariableOp f4 [2]
0	0xbce9276f	-0.028461186
1	0x3ce92873	0.02846167

sequential_1/dense_8/BiasAdd/ReadVariableOp f4 [8]
0	0x3e8882d5	0.26662317
1	0x3e87326e	0.26405662
2	0xbba91218	-0.0051596276
3	0x3d648af3	0.055796575
4	0x3e81e476	0.25369614
5	0x3dda9203	0.10672381
6	0x3e8825d1	0.26591352
7	0x3e8834ed	0.2660288

sequential_1/dense_7/BiasAdd/ReadVariableOp f4 [16]
0	0x00000000	0.0
1	0xb9802e58	-0.0002444859
2	0xbc840762	-0.016116802
3	0x3e8e38f4	0.27777827
4	0x3e6e40ce	0.23266909
5	0x00000000	0.0
6	0x3e84871e	0.25884336
7	0x3e7a746f	0.24458478
8	0x3e8347cf	0.25640723
9	0x3e1443f3	0.14479046
10	0x00000000	0.0
11	0x00000000	0.0
12	0x00000000	0.0
13	0xbbf7bd5c	-0.007560415
14	0x00000000	0.0
15	0x00000000	0.0

sequential_1/dense_6/BiasAdd/ReadVariableOp f4 [8]
0	0xbc19ee9f	-0.009395271
1	0x00000000	0.0
2	0x3e63a92b	0.22232501
3	0xbd8a1a54	-0.06743303
4	0xbd62c34a	-0.055362023
5	0x00000000	0.0
6	0x00000000	0.0
7	0x00000000	0.0

sequential_1/dense_5/BiasAdd/ReadVariableOp f4 [4]
0	0x3e0b43b8	0.13600051
1	0xbb190050	-0.0023346134
2	0xbe346637	-0.17617117
3	0x00000000	0.0

sequential_1/dense_5/MatMul f4 [4, 16]
0	0x3df7f7cd	0.12107811
1	0xbdc00706	-0.093763396
2	0xbb43c1ca	-0.0029870146
3	0xbd2b35a2	-0.041799195
4	0x3ec73877	0.38910267
5	0x3dcb9157	0.09939831
6	0xbd529487	-0.051411178
7	0xbd54e953	-0.051980328
8	0x3f22ecd6	0.6364263
9	0x3f566b09	0.8375707
10	0xbf5ccdce	-0.86251533
11	0xbe1dea89	-0.154215
12	0x4090c54e	4.524085
13	0x400d3c36	2.2068
14	0xbff09ed2	-1.8798468
15	0xbe0916fe	-0.13387677
16	0xbc89e5a6	-0.016833138
17	0xbd42d2f2	-0.047564454
18	0x3c0939e9	0.008375623
19	0x3cdb4a37	0.026768787
20	0xbb6d877d	-0.0036244087
21	0x3d27ff1a	0.04101477
22	0xbd219625	-0.03944983
23	0xbc9b3a7d	-0.018948788
24	0xbb13eb1b	-0.0022570554
25	0xbc20bf26	-0.009811198
26	0x3b847b15	0.004042993
27	0xbd1b3eaf	-0.037901577
28	0xbcb774a6	-0.02239449
29	0x3ca5a34c	0.020219468
30	0xbd2f75eb	-0.042837065
31	0x3c887d72	0.01666138
32	0x3d292050	0.04129058
33	0x3d6bbb46	0.057551645
34	0xbd2931af	-0.041307148
35	0x3d6f78cf	0.05846482
36	0xbe682be4	-0.22672993
37	0xbe2779d2	-0.16355065
38	0x3d060710	0.03272158
39	0x3da78d8e	0.08181296
40	0xbf108329	-0.56450135
41	0xbf63e0de	-0.89014995
42	0x3f569bb3	0.8383133
43	0x3dbaf2a7	0.091283135
44	0xc08ed599	-4.463574
45	0xc00e4484	-2.2229319
46	0x3ffad67a	1.9596703
47	0x3e83e33f	0.25759313
48	0xbd39adfa	-0.045331933
49	0x3c658284	0.014008168
50	0x3ccc9412	0.02497295
51	0xbd16e3d6	-0.036838375
52	0x3d350f93	0.044204306
53	0xbcae4f2d	-0.021277988
54	0x3aafcba0	0.0013412125
55	0xbd22e7dd	-0.039771903
56	0xbd2b2690	-0.041784823
57	0xbd058ebd	-0.03260683
58	0x3d159801	0.036521915
59	0xbc2ecd00	-0.010668993
60	0x3b62f360	0.0034629926
61	0x3d3b4283	0.045717727
62	0xbc8738ac	-0.016506515
63	0xbd4b4333	-0.049624633

sequential_1/dense_6/MatMul f4 [8, 4]
0	0xbcfb7852	-0.030697022
1	0x3caf5322	0.021401946
2	0xba87922b	-0.0010343244
3	0xbd475bfd	-0.04867171
4	0xba62e8c0	-0.0008655898
5	0x39289a00	0.00016079098
6	0xbca2912d	-0.019844616
7	0xbd1ca306	-0.03824141
8	0x3e999909	0.2999957
9	0xbcd94ce1	-0.026525917
10	0x3d80ce65	0.06289367
11	0xbcb80f00	-0.02246809
12	0xbe64d873	-0.22348194
13	0x3c7139dc	0.014723267
14	0x3ddca289	0.107731886
15	0x3c0967a8	0.00838653
16	0xbe3fa33e	-0.18714616
17	0xbd3ca5ac	-0.046056435
18	0x3dc697f7	0.09696954
19	0x3c7b26c4	0.015329067
20	0xbd14e5b0	-0.03635186
21	0xbd402827	-0.046913292
22	0xbcbdb2e0	-0.023156583
23	0xbbae7250	-0.0053236857
24	0xbd3ecb07	-0.04658034
25	0xbd38ff57	-0.045165386
26	0xbc8b3e80	-0.016997576
27	0x3cebf4ee	0.028803315
28	0xbcbb587a	-0.022869337
29	0x3c91f6ae	0.017817821
30	0xbbdc6868	-0.0067263134
31	0x3ccaa3b2	0.02473626

sequential_1/dense_7/MatMul f4 [16, 8]
0	0xbd421213	-0.04738052
1	0x3d087d01	0.033322338
2	0xbd41be3d	-0.047300566
3	0xbd0ac4b4	-0.033878997
4	0xbc8b40d4	-0.016998686
5	0xbca00b13	-0.01953653
6	0xbbb422e8	-0.005497325
7	0x3cf05f66	0.029342365
8	0xbd008084	-0.031372562
9	0x3ca6bec2	0.020354632
10	0xbcada411	-0.021196397
11	0x3b9d5fa7	0.0048026624
12	0x3b6dbea0	0.0036276951
13	0xbd2a164d	-0.041525174
14	0xbd47a3f3	-0.04874034
15	0x3d1e3273	0.03862233
16	0xbcc6a26f	-0.024247376
17	0x3d33a28d	0.043856192
18	0x3d8dda86	0.06926446
19	0x3ed5c622	0.41752726
20	0x3eda46b0	0.42632055
21	0xbcf9723a	-0.030449975
22	0x3cf9ad22	0.030478064
23	0xbb4e26a0	-0.0031456128
24	0x3c0c2f12	0.008556144
25	0x3d486163	0.048921
26	0x3e426a4b	0.1898586
27	0xbd95b5fc	-0.073101014
28	0xbde85c51	-0.11345733
29	0xbd091af6	-0.033472978
30	0x3a3cdcc0	0.0007204525
31	0x3c2ef24c	0.010677885
32	0x3d01d600	0.031698227
33	0xbc21e0cc	-0.009880256
34	0x3e3db0d5	0.18524487
35	0xbdc1de4d	-0.09466229
36	0xbd868028	-0.065674126
37	0xbd2fa60d	-0.042882968
38	0xb9bfd980	-0.0003659241
39	0xbcec00a0	-0.028808892
40	0x3d414011	0.04718024
41	0xbcfff813	-0.03124622
42	0xbcf8baad	-0.030362451
43	0x3c4e90a4	0.012607727
44	0xbccd115a	-0.025032688
45	0x3d159269	0.03651658
46	0xbc0432b4	-0.008068729
47	0xbb109b30	-0.0022065155
48	0xbd428f1b	-0.047499757
49	0xbd054136	-0.032532893
50	0x3e42f814	0.19039947
51	0xbdc16dc3	-0.094447635
52	0xbdb27d8e	-0.08715354
53	0x3c641d9c	0.013923075
54	0xbcb8d8cd	-0.022564316
55	0x3d45878d	0.048224974
56	0x3d12d813	0.035850596
57	0x3d368473	0.044559907
58	0x3e3c0588	0.18361485
59	0xbd6c54b1	-0.057697956
60	0xbdfc2424	-0.12311581
61	0xbcf28993	-0.029606616
62	0x3c49a0b4	0.012306381
63	0x3ccde4e6	0.025133561
64	0xbb4b9c7b	-0.0031068611
65	0xbca75ef3	-0.020431018
66	0x3e1f8bb4	0.15580636
67	0xbda8950a	-0.08231552
68	0xbd8ea41e	-0.069648966
69	0xbd1dd9e0	-0.03853786
70	0x3c013c34	0.007887889
71	0x3d216087	0.039398696
72	0xbc05cf00	-0.008167028
73	0xbc44a38c	-0.012001883
74	0xbe5c9fbc	-0.21545309
75	0x3e4659a3	0.19370131
76	0x3e1b6602	0.15175632
77	0x3ca24842	0.019809846
78	0x3c8fd7fa	0.01755904
79	0x3c8bb9fa	0.017056454
80	0xbd1ec313	-0.038760256
81	0xbd2a0840	-0.041511774
82	0xbd0210f4	-0.03175445
83	0x3c6cd944	0.014456097
84	0xbaa0fa00	-0.0012281537
85	0x3c61cbdc	0.013781514
86	0xbcdad527	-0.026712967
87	0x3cdb5786	0.026775133
88	0x3b47aa30	0.003046643
89	0x3d287303	0.04112531
90	0xbd46426d	-0.048403192
91	0xbcfba97a	-0.030720461
92	0x3d481d73	0.04885621
93	0xbbe93c98	-0.007117819
94	0x3d189083	0.037247192
95	0xbd0b852a	-0.034062542
96	0xbccb2513	-0.024797952
97	0xbd464e6a	-0.048414625
98	0xbcebc8ed	-0.028782332
99	0xbcb9c267	-0.022675706
100	0xbbde0118	-0.0067750327
101	0x3ced3d52	0.028959904
102	0xbd296380	-0.041354656
103	0xbcbb73ba	-0.022882331
104	0xbc2fd898	-0.010732792
105	0x3b915e30	0.004436277
106	0xbc423f52	-0.011855917
107	0xbd2a458d	-0.041570235
108	0x3d22b6c9	0.0397251
109	0x3d1fd659	0.039022777
110	0xbd48d4ad	-0.04903095
111	0x3c2844b4	0.010270286
112	0x3d4850bd	0.048905123
113	0xbb96c4d0	-0.0046010986
114	0xbc847d66	-0.016173076
115	0x3cdafb5a	0.026731182
116	0xbcbe8dcd	-0.023260975
117	0xb99f4680	-0.0003037937
118	0x3ce975d2	0.028498564
119	0xbd13eaed	-0.036112715
120	0xbbd43930	-0.006476544
121	0xbb48aa30	-0.0030619018
122	0xbd3bd377	-0.045855965
123	0xbca79027	-0.02045448
124	0xbc971fd4	-0.018447794
125	0x3c770fc4	0.015079442
126	0xbd087836	-0.033317767
127	0xbc4faa18	-0.012674831

sequential_1/dense_8/MatMul f4 [8, 16]
0	0x3d362777	0.04447123
1	0x3d108a03	0.03528787
2	0xbbed3879	-0.007239398
3	0x3e4b44aa	0.19850412
4	0x3e4d61ce	0.20056841
5	0xbcfcfa40	-0.030881047
6	0x3e30b879	0.1725787
7	0x3deace40	0.1146512
8	0x3e4b1b02	0.19834521
9	0xbdf18003	-0.117919944
10	0x3d3ef57d	0.046620835
11	0x3c803ff2	0.015655492
12	0x3c44da18	0.012014888
13	0x3cdf5275	0.027260998
14	0x3c782824	0.015146289
15	0xbd1b68f6	-0.037941895
16	0x3c242774	0.010019172
17	0xbce64c4d	-0.028112555
18	0xbc8e775e	-0.017390903
19	0x3e317616	0.17330202
20	0x3e1ac3a6	0.15113696
21	0x3bd0d8d0	0.0063735023
22	0x3e3d2fc0	0.18475246
23	0x3e4402dd	0.19141717
24	0x3e3a497d	0.18192096
25	0xbd9ad151	-0.07559455
26	0x3c1a054c	0.009400677
27	0xbd1526dd	-0.036414016
28	0xbc386800	-0.011255264
29	0x3be0f639	0.0068652895
30	0x3bc6a2d0	0.006061889
31	0xbd355f1d	-0.04428016
32	0x3d44c757	0.048041668
33	0x3c82c53a	0.015963186
34	0xbce59ada	-0.02802794
35	0x3c6517e3	0.013982746
36	0xbd1ab0af	-0.037766155
37	0xbbf4b200	-0.0074675083
38	0x3d28e0d2	0.04123003
39	0x3a8dc415	0.0010815883
40	0xbd394e3e	-0.045240633
41	0xbd18ef66	-0.037337683
42	0x3d279287	0.040911224
43	0xbb88bde8	-0.004173029
44	0x3d143443	0.036182653
45	0x3d0fcea7	0.03510919
46	0xbc347580	-0.011014342
47	0x3cd76382	0.026292566
48	0xbc1ae8d8	-0.009454928
49	0xbcfe3118	-0.03102927
50	0x3ec99e39	0.39378527
51	0xbdb25452	-0.08707489
52	0x3cac3895	0.021023074
53	0xbd206416	-0.03915795
54	0xbd846c8a	-0.06466015
55	0xbceb57dc	-0.028728418
56	0x3bf393d5	0.0074333944
57	0x3f015f49	0.5053602
58	0xbd1fd470	-0.039020956
59	0xbd43754d	-0.04771929
60	0xbd26b840	-0.04070306
61	0x3d29ae37	0.04142591
62	0x3cf9232e	0.030412283
63	0x3ca61da2	0.020277802
64	0xbcf54293	-0.029938972
65	0x3cc6e03a	0.024276841
66	0xbc178d83	-0.009250048
67	0x3e2f4c57	0.17118965
68	0x3e53879a	0.20657197
69	0x3ba1a0e8	0.0049325116
70	0x3dd7f852	0.1054541
71	0x3e3c877a	0.18411055
72	0x3e266bee	0.1625211
73	0xbdd1e0ee	-0.1024798
74	0xbc58bc98	-0.013228558
75	0x3cd76b6e	0.026296344
76	0xbd1ff4d3	-0.039051842
77	0x3c87502f	0.016517727
78	0xbc65b074	-0.0140191205
79	0x3ac2a6c0	0.0014850721
80	0x3ba6da18	0.005091917
81	0xbcb991e9	-0.022652583
82	0x3ee773c5	0.45205513
83	0xbd2a075a	-0.041510917
84	0x3d3b58d0	0.045738995
85	0x3c539c84	0.012915734
86	0xbdbe16c6	-0.092816874
87	0xbd4473d8	-0.04796204
88	0xbd71602f	-0.05892962
89	0x3f078c05	0.5294803
90	0xbd177913	-0.0369807
91	0x3d4172a7	0.04722848
92	0x3c8e6b46	0.017385136
93	0x3c3cab28	0.011515416
94	0x3c99d726	0.018779349
95	0xbd4b170a	-0.04958252
96	0xbd0ffbca	-0.035152234
97	0xbd07360a	-0.03301052
98	0xbc98fd56	-0.018675487
99	0x3e2e9c4b	0.17051809
100	0x3e299494	0.16560584
101	0xbd13306d	-0.035934854
102	0x3e477f70	0.19482207
103	0x3e3e9c28	0.18614256
104	0x3e24fc67	0.16111909
105	0xbd924228	-0.071415246
106	0xbd03ab70	-0.032145917
107	0x3d13e689	0.036108527
108	0xbc5fa8cc	-0.013651084
109	0x3ccae899	0.024769114
110	0x3b95da80	0.0045731664
111	0x3bcf1a18	0.0063202493
112	0x3d1af5b3	0.037831973
113	0xbd0d74b0	-0.03453511
114	0xbc9c5143	-0.019081717
115	0x3e4cc092	0.19995335
116	0x3e359ff1	0.17736794
117	0xbce91d07	-0.028456224
118	0x3e1e2b68	0.15446246
119	0x3e46b6f7	0.19405733
120	0x3e086b5d	0.13322206
121	0xbd907ed2	-0.07055439
122	0xbc876660	-0.016528308
123	0x3c8ab4ce	0.016931918
124	0x3d3b6153	0.045747112
125	0xbc963c82	-0.0183394
126	0x3b726500	0.003698647
127	0xbc5308cc	-0.012880515

sequential_1/dense_9/MatMul f4 [2, 8]
0	0x3e0e11bc	0.13873953
1	0x3e25dff2	0.1619871
2	0xbba8536b	-0.0051368973
3	0xbeb79279	-0.35853937
4	0x3e2147a7	0.1574999
5	0xbec1246e	-0.37723106
6	0x3e2995bc	0.16561025
7	0x3e226ff9	0.15863027
8	0xbe1ec430	-0.15504527
9	0xbe275cbf	-0.16343974
10	0x3d1bfeb1	0.03808469
11	0x3ec3a127	0.38208887
12	0xbe19102b	-0.14947574
13	0x3ed286e7	0.41118547
14	0xbe2d0d51	-0.16899611
15	0xbe1ce973	-0.15323429
