autoencoder/autoencoder.tflite (tflite, 4400 bytes, 10 tensors)

sequential_1/dense_9/BiasAdd/ReadVariableOp f4 [16]
00000000: e3c3 ec3d 77c6 bfbd 83f4 d5bd eafc db3e
00000010: eff6 86be 91c5 afbe 5cd5 84be 12f6 8abe
00000020: 7913 d5be d297 a3be 5caf 9abe d49f c6be
00000030: 49e0 8dbe 72e7 82be 619f 5cbe d1db 94be
0.115608 -0.09364026 -0.104470275 0.42966396 -0.2636027 -0.3433042 -0.2594403 -0.27140862
-0.4161642 -0.31951767 -0.30211914 -0.38793814 -0.27710178 -0.25567204 -0.21545173 -0.29073957

sequential_1/dense_8/BiasAdd/ReadVariableOp f4 [8]
00000000: 7e0a 313f fe73 823e 0051 2dbc 4cfd de3e
00000010: 0000 0000 0000 0000 0000 0000 d00d 9b3e
0.69156635 0.2547912 -0.010578394 0.43552625 0.0 0.0 0.0 0.30283976

sequential_1/dense_7/BiasAdd/ReadVariableOp f4 [4]
00000000: a5e1 e93e 6072 3fbd 0000 0000 6027 f8bc
0.45679966 -0.046739936 0.0 -0.030292213

sequential_1/dense_6/BiasAdd/ReadVariableOp f4 [4]
00000000: 7b8e 1b3f ad05 093f 732d 27be 4e79 47bd
0.6076428 0.53524286 -0.16325931 -0.04869967

sequential_1/dense_5/BiasAdd/ReadVariableOp f4 [8]
00000000: 0000 0000 5e70 313f 9b2c 923f 1e0a 3c3f
00000010: 343c 2e3f 08ec 1e3f a953 54bc 4b04 133f
0.0 0.69312084 1.1419863 0.7345294 0.6806061 0.62078905 -0.012959399 0.57428426

sequential_1/dense_5/MatMul f4 [8, 16]
00000000: b4e1 e0be f812 963e 08cb f8be 60bb 8fbd
00000010: c8a7 b6be 90f4 a03e 20bf 1ebe c0ca 023d
00000020: 20cf 173d 180e 203e b051 61be 3071 c63e
00000030: 1809 fb3e 002b 2fbc 38e8 b3be 5098 0cbe
00000040: 4939 d1be 4073 253f 47f5 86bd db73 543e
00000050: b3f6 113f 9ed2 513e b796 e23e 2d40 013d
00000060: 7790 763e f390 f33e ed63 a43c 61b3 9e3e
00000070: 7a72 903f d02d 343f b87a 0d3f 9b87 a33f
00000080: 7e53 1dbf 0b5d 07bf 4867 31bf 484d 94bf
00000090: 2b38 f0bd e12d c7be 2bb8 bdbe 097d 4fbf
000000a0: 2fa6 59bf 78e9 26bf ce7e 35bf 8f1a 81bf
000000b0: 1aa3 6b3f 4618 8d3f dd8c c33f 0686 f43f
000000c0: d8fb 463e ea25 debc 474d 953e c629 e63d
000000d0: fe54 f23e 1272 173f 8a41 95bd 4bfb 62be
000000e0: 7bfd ef3e 1502 f93d 416e 2e3f d822 693e
000000f0: 9a00 0d3f eb2f 163f beb2 1c3f 0b69 7f3f
00000100: a8c2 fc3e ba17 183e 15f7 80be d213 3a3e
00000110: d859 0abd ca28 f43e 7d98 54be 71cc b53e
00000120: b4bf 6f3e ef58 923d 7632 9ebe c991 a53e
00000130: 7a93 523f bb52 c63e 3392 a23f 2c47 853f
00000140: fafc af3e 1702 8d3e f125 a7be 0699 013f
00000150: d037 84be 3a17 033f 3dcb 9f3c edde 2d3e
00000160: be99 0a3f ba8c 3c3f 2697 103f 259f 313f
00000170: 3b7b 883f 0f95 833f 7960 4b3f ca0f 6b3f
00000180: 7805 99bd 9108 813e 8b35 f3bc 07dd 82be
00000190: 5885 f5bd e2a6 e63e 1ed3 71be 3bf6 a1bd
000001a0: 978f 06be 9b29 bfbe 7ffb e03e 0be6 893e
000001b0: 2acc 85be 1a23 e73e e77b 953e c396 b73e
000001c0: b877 e33e fee6 533f 1038 023f e9e5 ed3e
000001d0: 59e9 473f da2c c83e a2b3 3e3e 6b83 293f
000001e0: 8970 063f 0db9 ab3e 78e6 003f dab3 393f
000001f0: 93b6 623c 476c 9a3f 94b8 853e d057 153f
-0.43922198 0.29311347 -0.485924 -0.07018161 -0.35674882 0.31436586 -0.15502596 0.03193164
0.037062764 0.15630376 -0.22003818 0.3875823 0.49030375 -0.010691404 -0.35138106 -0.13729978
-0.40864018 0.6462898 -0.06589752 0.2074732 0.5701706 0.204905 0.4425561 0.031555343
0.24078546 0.47571525 0.02006718 0.3099623 1.1284935 0.70382404 0.5526538 1.2775759
-0.61455524 -0.5287635 -0.6929822 -1.1586084 -0.11729463 -0.3890219 -0.37054572 -0.81050164
-0.850192 -0.65199995 -0.70896614 -1.008623 0.9204575 1.1023033 1.5277363 1.9103401
0.19432008 -0.027117688 0.2916052 0.112384364 0.4733047 0.5915843 -0.07287891 -0.22166173
0.46873078 0.121586 0.68136984 0.22767198 0.5507904 0.58666867 0.6121024 0.9976966
0.4936726 0.14852801 -0.2518851 0.18171623 -0.033777088 0.4768737 -0.20761295 0.3550754
0.23412973 0.07145869 -0.30897874 0.32337788 0.8225628 0.38734993 1.2700866 1.0412345
0.34372693 0.27540657 -0.32646134 0.5062412 -0.25823832 0.51207316 0.019506091 0.1697957
0.5414084 0.7365223 0.56480634 0.6938346 1.0662607 1.0279864 0.7944408 0.9182097
-0.07471746 0.25201848 -0.029688617 -0.25559255 -0.11988324 0.45049196 -0.23615691 -0.07908293
-0.13140713 -0.3733643 0.43941876 0.2693332 -0.26132327 0.45143968 0.29196092 0.3585721
0.44427276 0.8277434 0.50866795 0.4646447 0.78090435 0.3909672 0.18623212 0.6621615
0.52515465 0.3353962 0.5035167 0.72540057 0.013837474 1.2064294 0.26117384 0.58337116

sequential_1/dense_6/MatMul f4 [4, 8]
00000000: aeef 60be 24ab 313f 8bae 513f 73b1 a13f
00000010: 5b1a 3b3f 8401 893f 2271 cf3e 6493 d63d
00000020: d734 2b3f 82d0 733f 83d2 8a3f b32f e03e
00000030: fbfd 0b3f e5f8 913f 7122 763e 2cd5 673f
00000040: 1ce2 1ebe 93ff 533e a9cc b2bf 45ae 8b3d
00000050: 2d51 0c3e 449b c03e 3249 15bf 4828 353f
00000060: 62a5 8e3e 6cb2 c2bc ef7b ebbf ad3e 033f
00000070: 309e 92be bbc1 a63e e49f 85be f492 8d3f
-0.2196643 0.69401765 0.81906956 1.2632278 0.7308709 1.0703588 0.40516 0.10477331
0.668775 0.9524003 1.0845493 0.43786392 0.5468442 1.1404082 0.24036576 0.9055965
-0.15515941 0.20702963 -1.3968707 0.06820349 0.13702841 0.37618458 -0.5831481 0.7076459
0.27860552 -0.023766719 -1.8397197 0.5126751 -0.28636312 0.3256968 -0.2609855 1.1060472

sequential_1/dense_7/MatMul f4 [4, 4]
00000000: 1cca 583f 3c45 883f 52ac fdbf b90b c3bf
00000010: 59f5 ac3e 7189 d5be a40e 2c3f 30ca 5cbf
00000020: f9f2 54bf c0a1 6f3c 9072 eebd e202 c5be
00000030: c393 55bf e671 5b3e 1405 743e e670 57bf
0.84683394 1.0646129 -1.9818213 -1.5237952 0.33780935 -0.41706422 0.6720984 -0.86246014
-0.83183247 0.014625967 -0.11642945 -0.38478762 -0.8342859 0.21430168 0.23830062 -0.84156644

sequential_1/dense_8/MatMul f4 [8, 4]
00000000: 8c0e 223f e39d 18bf 0373 0d3f 19be 273f
00000010: f2d9 463f 5ee6 aa3e ad7c 243f 249a a1be
00000020: 5e42 b4be 4a53 e73e 4a12 1dbf 1f1c c83e
00000030: d49b 953f 645b 12bf c457 1bbe 805a 1abe
00000040: a071 0ebe 2014 193e 40fa e93c 7fcd dcbe
00000050: cc27 0fbe 6eb0 05bf ca50 f4be 50a7 0cbd
00000060: e838 edbd 6c75 e8be 4ab3 99be 7ab8 fabe
00000070: 1bb9 913f f653 26bf 350a 313f 8925 f6be
0.63303447 -0.59615916 0.5525362 0.6552444 0.7767631 0.3337888 0.6425274 -0.31562912
-0.35206884 0.45180732 -0.6135603 0.39083955 1.168818 -0.571707 -0.15170199 -0.15073586
-0.13910532 0.14949083 0.028561711 -0.4312553 -0.13980025 -0.52222335 -0.47717887 -0.03433925
-0.1158312 -0.45402086 -0.300196 -0.4896887 1.1384615 -0.64971864 0.691562 -0.48075512

sequential_1/dense_9/MatMul f4 [16, 8]
00000000: b694 563e 4c74 a0bc e634 f53e 5a59 0b3e
00000010: e400 a63e a078 13bd 007b efbd a9af d8be
00000020: b889 d23d cbde 1dbf c721 d5bd 742c 863e
00000030: 646f aa3e 68e0 a13e 1cac 883e 0a63 2ebd
00000040: 0cb5 8abc d7d4 a6bd 62f0 623e d642 46bd
00000050: 08c8 4b3e 2448 ad3e 0004 85bb def4 4cbd
00000060: 6bcc cabd 5cc5 5bbe 27c7 573e 6060 32be
00000070: b8ac dc3e 0415 c33e ecdc f53e 012a 283e
00000080: 816c 00bf 46e3 20bf 9cb1 d03e 9395 00bf
00000090: b471 883e 283b 753e 80ad 843c dd21 bfbe
000000a0: 8a1b 56bf 5423 d1be 10ea b0be 05b4 dfbe
000000b0: ac6a a0be 0886 2fbe f0f0 20be 82e1 b4be
000000c0: 0901 1abe a0cb 7ebf d0fd 5c3d ac98 5cbf
000000d0: 00f5 e83b b07b 9b3e 38b5 6f3e 2ec8 4bbd
000000e0: 275b 67bf 120b 0dbe 4c4d 0a3e b3b9 04bf
000000f0: 54a0 cb3e 704f cbbe 40b3 aabc 7508 cebe
00000100: c4ff 59bf fd2d 8cbe 05cf 093e bf66 32be
00000110: 1802 393e 9062 99be 5016 9fbd 1c30 98be
00000120: 99f8 18bf af35 1abf 2e09 5a3e 227b 34be
00000130: 5097 fb3d e0c0 be3e e0dc fbbe d01d a8be
00000140: ef06 4ebe aece 1ebf 6eaa 853c 12de 20bf
00000150: 0833 94be 400b bf3c e082 81bd 0698 03be
00000160: 6531 b8be 4ca5 59bf 2681 83bc 34c4 723d
00000170: e81d a43e 0002 8e3b 6047 6ebd 8995 02bf
00000180: 9e40 1abf 3654 50be b20e 4e3e 044d 10bf
00000190: 780d 4fbe 8887 16be 8015 09bc 8a46 89bf
000001a0: 675c c9be 68b5 25bf 6390 713e d93c 3ebf
000001b0: 50ce ee3d 00e3 193d 8ceb a93e 7bc1 21bf
000001c0: 4c4b 22bf c596 11bf 56a3 d83e c155 4ebf
000001d0: c453 e8be 4897 dabe 404e ed3e d652 e1be
000001e0: 0f35 91bf ecc8 90bf e0fe a3be c3b6 cdbe
000001f0: c0cd fbbe f0fc e2be 0cce 82be 82fd 1bbe
0.20955166 -0.019586705 0.4789192 0.13608304 0.32422554 -0.03600371 -0.11693382 -0.42321518
0.10280174 -0.6166808 -0.10406833 0.2620579 0.3328811 0.3161652 0.2669381 -0.04257492
-0.016932033 -0.08146065 0.22162011 -0.048403583 0.19900525 0.338441 -0.0040593147 -0.05003821
-0.09902271 -0.21462005 0.21072064 -0.17419577 0.43100524 0.3810197 0.48020113 0.16422273
-0.50165564 -0.6284679 0.40760505 -0.5022823 0.2664925 0.23948348 0.016196012 -0.37330523
-0.8363577 -0.40847266 -0.34553576 -0.43692032 -0.31331384 -0.17140973 -0.1571691 -0.353283
-0.15039457 -0.9952946 0.053952992 -0.8617046 0.0071092844 0.30367804 0.23408973 -0.049751453
-0.9037346 -0.13773754 0.13506049 -0.51845855 0.39770758 -0.39709044 -0.020837426 -0.40240827
-0.8515589 -0.27378836 0.13457878 -0.17422007 0.18067205 -0.2995801 -0.07767928 -0.29724205
-0.5975433 -0.60238165 0.21292564 -0.17625096 0.1228472 0.37256527 -0.49191952 -0.32835245
-0.20119832 -0.6203412 0.016316619 -0.6283885 -0.28945184 0.023320794 -0.063237906 -0.12850961
-0.35975185 -0.8501785 -0.016052794 0.059269145 0.32054067 0.0043337345 -0.058173537 -0.5100942
-0.6025485 -0.20344624 0.20122793 -0.56367517 -0.20219982 -0.14700139 -0.008366942 -1.0724652
-0.3932831 -0.6472993 0.23590235 -0.74311596 0.11660445 0.03757 0.3318752 -0.6318585
-0.63396144 -0.5687068 0.42312115 -0.805996 -0.45376408 -0.42693543 0.46348763 -0.4400851
-1.1344317 -1.1311316 -0.32030392 -0.401785 -0.49180412 -0.443336 -0.25547826 -0.15233424
