autoencoder/autoencoder_int8quantized.tflite (tflite, 3984 bytes, 5 tensors)

sequential_1/dense_9/MatMul i1 [16, 8] scale=0.008932534 zero_point=0
0.20544827 -0.017865067 0.48235682 0.13398801 0.3215712 -0.035730135 -0.11612294 -0.41982907
0.1071904 -0.6163448 -0.1071904 0.25904348 0.33050373 0.31263867 0.26797602 -0.04466267
-0.017865067 -0.0803928 0.22331335 -0.04466267 0.19651574 0.3394363 0.0 -0.0535952
-0.09825787 -0.2143808 0.2143808 -0.17865068 0.4287616 0.38409895 0.48235682 0.1607856
-0.5002219 -0.62527734 0.41089654 -0.5002219 0.26797602 0.24117841 0.017865067 -0.37516642
-0.83965814 -0.41089654 -0.34836882 -0.43769416 -0.31263867 -0.16971815 -0.1607856 -0.35730135
-0.15185307 -0.9915112 0.0535952 -0.8575232 0.008932534 0.30370614 0.23224588 -0.0535952
-0.9021859 -0.13398801 0.13398801 -0.51808697 0.401964 -0.39303148 -0.017865067 -0.401964
-0.8485907 -0.27690855 0.13398801 -0.17865068 0.17865068 -0.30370614 -0.0803928 -0.2947736
-0.59847975 -0.59847975 0.2143808 -0.17865068 0.12505548 0.37516642 -0.49128935 -0.33050373
-0.20544827 -0.6163448 0.017865067 -0.62527734 -0.28584108 0.0267976 -0.06252774 -0.12505548
-0.35730135 -0.8485907 -0.017865067 0.06252774 0.3215712 0.0 -0.06252774 -0.50915444
-0.59847975 -0.20544827 0.20544827 -0.5627496 -0.20544827 -0.14292054 -0.008932534 -1.0719041
-0.39303148 -0.6431424 0.23224588 -0.7414003 0.11612294 0.035730135 0.33050373 -0.6342099
-0.6342099 -0.57168216 0.41982907 -0.803928 -0.45555922 -0.4287616 0.46449175 -0.43769416
-1.1344317 -1.1344317 -0.3215712 -0.401964 -0.49128935 -0.4466267 -0.25904348 -0.15185307
00000000: 17fe 360f 24fc f3d1 0cbb f41d 2523 1efb
00000010: fef7 19fb 1626 00fa f5e8 18ec 302b 3612
00000020: c8ba 2ec8 1e1b 02d6 a2d2 d9cf dded eed8
00000030: ef91 06a0 0122 1afa 9bf1 0fc6 2dd4 fed3
00000040: a1e1 0fec 14de f7df bdbd 18ec 0e2a c9db
00000050: e9bb 02ba e003 f9f2 d8a1 fe07 2400 f9c7
00000060: bde9 17c1 e9f0 ff88 d4b8 1aad 0d04 25b9
00000070: b9c0 2fa6 cdd0 34cf 8181 dcd3 c9ce e3ef

sequential_1/dense_8/MatMul i1 [8, 4] scale=0.0092032915 zero_point=0
0.6350271 -0.598214 0.5521975 0.6534337 0.7730765 0.3313185 0.6442304 -0.3129119
-0.34972507 0.4509613 -0.61662054 0.38653824 1.168818 -0.5706041 -0.14725266 -0.14725266
-0.13804938 0.14725266 0.027609874 -0.4325547 -0.13804938 -0.52458763 -0.47857115 -0.036813166
-0.11964279 -0.4509613 -0.3037086 -0.48777446 1.1412082 -0.6534337 0.6902469 -0.47857115
00000000: 45bf 3c47 5424 46de da31 bd2a 7fc2 f0f0
00000010: f110 03d1 f1c7 ccfc f3cf dfcb 7cb9 4bcc

sequential_1/dense_7/MatMul i1 [4, 4] scale=0.015604892 zero_point=0
0.8426642 1.0611327 -1.9818213 -1.5292794 0.3433076 -0.4213321 0.6710104 -0.85826904
-0.82705927 0.015604892 -0.10923424 -0.3901223 -0.82705927 0.21846849 0.23407337 -0.8426642
00000000: 3644 819e 16e5 2bc9 cb01 f9e7 cb0e 0fca

sequential_1/dense_6/MatMul i1 [4, 8] scale=0.014485981 zero_point=0
-0.21728972 0.6953271 0.82570094 1.2602804 0.7242991 1.0719626 0.40560746 0.101401865
0.66635513 0.9560748 1.0864486 0.43457943 0.5504673 1.1443925 0.24626169 0.91261685
-0.15934579 0.20280373 -1.3906542 0.07242991 0.13037384 0.37663552 -0.5794393 0.70981306
0.27523366 -0.028971963 -1.8397197 0.5070093 -0.28971964 0.31869158 -0.26074767 1.1009346
00000000: f130 3957 324a 1c07 2e42 4b1e 264f 113f
00000010: f50e a005 091a d831 13fe 8123 ec16 ee4c

sequential_1/dense_5/MatMul i1 [8, 16] scale=0.015042048 zero_point=0
-0.4362194 0.2857989 -0.48134553 -0.07521024 -0.36100915 0.315883 -0.15042049 0.030084096
0.030084096 0.15042049 -0.22563072 0.39109325 0.49638757 -0.015042048 -0.3459671 -0.13537844
-0.4061353 0.6468081 -0.06016819 0.21058866 0.5715978 0.21058866 0.4362194 0.030084096
0.24067277 0.48134553 0.015042048 0.315883 1.1281536 0.70697623 0.55655575 1.2785741
-0.61672395 -0.5264717 -0.6919342 -1.1582377 -0.12033638 -0.39109325 -0.3760512 -0.8122706
-0.8573967 -0.6468081 -0.70697623 -1.0078173 0.9175649 1.0980695 1.5342889 1.9103401
0.19554663 -0.030084096 0.2857989 0.10529433 0.4663035 0.5866399 -0.07521024 -0.22563072
0.4663035 0.12033638 0.67689216 0.22563072 0.55655575 0.5866399 0.61672395 0.99277514
0.49638757 0.15042049 -0.2557148 0.18050458 -0.030084096 0.48134553 -0.21058866 0.36100915
0.24067277 0.07521024 -0.315883 0.315883 0.82731265 0.39109325 1.263532 1.0379013
0.3459671 0.27075687 -0.33092505 0.5114296 -0.2557148 0.5114296 0.015042048 0.16546252
0.54151374 0.73706037 0.5715978 0.6919342 1.0679854 1.0228592 0.7972285 0.9175649
-0.07521024 0.2557148 -0.030084096 -0.2557148 -0.12033638 0.45126143 -0.24067277 -0.07521024
-0.13537844 -0.3760512 0.4362194 0.27075687 -0.2557148 0.45126143 0.2857989 0.36100915
0.45126143 0.82731265 0.5114296 0.4663035 0.7821865 0.39109325 0.18050458 0.6618501
0.5264717 0.33092505 0.49638757 0.7220183 0.015042048 1.2033639 0.2557148 0.5866399
00000000: e313 e0fb e815 f602 020a f11a 21ff e9f7
00000010: e52b fc0e 260e 1d02 1020 0115 4b2f 2555
00000020: d7dd d2b3 f8e6 e7ca c7d5 d1bd 3d49 667f
00000030: 0dfe 1307 1f27 fbf1 1f08 2d0f 2527 2942
00000040: 210a ef0c fe20 f218 1005 eb15 371a 5445
00000050: 1712 ea22 ef22 010b 2431 262e 4744 353d
00000060: fb11 feef f81e f0fb f7e7 1d12 ef1e 1318
00000070: 1e37 221f 341a 0c2c 2316 2130 0150 1127
