autoencoder/autoencoder.tflite (tflite, 4364 bytes, 10 tensors)

sequential/dense_1/BiasAdd/ReadVariableOp f4 [4]
000000 1c 1a 40 3e d9 a5 00 3f 00 00 00 00 00 00 00 00
       0.1875996 0.50253063 0.0 0.0

sequential/dense_2/BiasAdd/ReadVariableOp f4 [4]
000000 35 9c de 3e 6b 3d 92 3e d5 48 45 bf 00 00 00 00
       0.43478552 0.28562483 -0.7706426 0.0

sequential/dense_3/BiasAdd/ReadVariableOp f4 [8]
000000 00 00 00 00 07 6f b8 be 00 00 00 00 00 00 00 00
       0.0 -0.36022207 0.0 0.0
000010 00 00 00 00 bf a3 0e 3f 00 00 00 00 d9 32 86 3e
       0.0 0.55718607 0.0 0.2621067

sequential/dense_4/BiasAdd/ReadVariableOp f4 [16]
000000 73 c3 d9 bd e4 c8 da be 5d b5 06 be 47 5a b8 be
       -0.10632982 -0.42731392 -0.13155122 -0.36006376
000010 49 08 a1 be 6c 00 03 be 2c d6 25 be 89 1b 52 be
       -0.31451634 -0.1279313 -0.16194981 -0.20518316
000020 03 44 9b be de d0 d8 be fc 1a 55 be 9a a2 b9 be
       -0.30325326 -0.42346853 -0.20811075 -0.36256868
000030 ca f5 6b be c0 1e 1f be 95 7f 0a be 94 6c 3c be
       -0.2304298 -0.15539074 -0.13525231 -0.18400794

sequential/dense/BiasAdd/ReadVariableOp f4 [8]
000000 7c fe 11 3f 00 00 00 00 fa ab b9 be 80 c3 d3 3e
       0.5702894 0.0 -0.3626402 0.41360092
000010 13 3a 4a 3f 05 c3 1c 3f b4 34 1d 3f 00 00 00 00
       0.78994864 0.61235076 0.61408544 0.0

sequential/dense/MatMul f4 [8, 16]
000000 ac 41 82 3d 74 fd c5 3e 13 b3 78 3e e4 fc ca bc
       0.06360182 0.38669932 0.24287061 -0.02477879
000010 e4 71 ad be d4 94 19 3f ff 16 17 3f 8c 7a 34 3e
       -0.33875954 0.5999272 0.59019464 0.17624873
000020 60 12 44 bd 93 54 06 be 63 f7 b7 3e 9e 28 58 be
       -0.047869086 -0.131182 0.3593093 -0.21109244
000030 88 3a 9a be 72 61 4c 3f 3f 71 e5 be 7c 18 e7 be
       -0.3012278 0.7983619 -0.44812962 -0.45135868
000040 80 ce 13 3c 74 f9 cb be 30 77 0e 3e c0 94 65 3d
       0.009021401 -0.39838755 0.13912654 0.056050062
000050 c0 06 b8 bd e8 86 74 3e 98 44 0c 3e 18 20 d8 3e
       -0.089856625 0.23879588 0.13698041 0.42211986
000060 b0 2b c7 be 18 e9 a5 3e 60 c2 e6 be a0 e2 3b 3e
       -0.38900518 0.324044 -0.4507017 0.1834817
000070 80 f7 f8 3e 60 85 db 3d c0 e3 4e 3e 50 d4 9a 3d
       0.48626328 0.10718799 0.20204067 0.07560027
000080 f9 6b e7 3e 44 dd f6 3e 9a e5 5b 3f 61 ff 37 3f
       0.45199564 0.48215687 0.8589722 0.7187405
000090 61 39 62 3e 3f b9 f4 be 15 c1 30 3f b3 17 77 3f
       0.22092201 -0.47797582 0.6904462 0.9652054
0000a0 19 a4 52 3d a8 92 db bd 73 a0 d0 3d 23 f1 68 3e
       0.051426027 -0.10721332 0.10186853 0.22748236
0000b0 de 4d a2 3d 6d 18 54 3e 3e 0c 5e bf cf e0 3f bf
       0.07925008 0.20712443 -0.8673743 -0.74952406
0000c0 e5 32 2a 3f 4e ca 12 3e 57 2e 93 3e a1 34 2e 3f
       0.6648391 0.14334986 0.28746292 0.68049055
0000d0 bb 5a ef 3e e7 2b 1d 3e d4 94 02 bd ee 4f 90 3e
       0.4674891 0.15348779 -0.031880215 0.28185982
0000e0 c2 04 46 3e 76 05 0e 3d 7b fe 0f 3f 5b 6d 68 3e
       0.19337752 0.034673177 0.5624768 0.22697966
0000f0 d3 79 33 be 0e 93 62 3f d3 e8 97 3e fa a8 11 bf
       -0.17526941 0.8850564 0.29669818 -0.5689846
000100 62 ed 71 be bb 8b 93 be f6 50 33 bf 7a 0d e0 3d
       -0.2362571 -0.28817543 -0.7004541 0.109400705
000110 b6 7c 35 bf 7a 26 a2 3e ff e2 63 bf 96 8e c4 3e
       -0.7089342 0.3166998 -0.89018244 0.38390034
000120 e8 1c 48 bf 1c f9 e5 bc c1 8b ae bf a3 27 ee be
       -0.7816911 -0.028072886 -1.36364 -0.46514615
000130 01 39 23 bf 46 20 d5 bd 45 81 bd 3e 90 c4 a0 3e
       -0.63758856 -0.10406546 0.37012687 0.31399965
000140 14 98 2d 3e 8a 4e 98 3e 21 c1 25 be 27 17 b1 3e
       0.16952544 0.2974742 -0.16186954 0.34587976
000150 a7 46 c0 3e 6b 09 c7 3e ec 33 84 be 72 4a 8e 3d
       0.37553903 0.38874373 -0.25820863 0.06947793
000160 24 89 c9 3b 11 ba ec be 31 2f 75 bf 82 da 2d bf
       0.0061503816 -0.46235707 -0.95775133 -0.6791154
000170 a0 bf 17 bf 99 54 f3 3c f0 c6 48 3f b5 e0 3e 3f
       -0.5927677 0.029703425 0.78428555 0.74561626
000180 a4 6d 0e 3d 85 04 a8 3d c3 a2 c0 bd b2 ec b2 3e
       0.03477253 0.08203987 -0.09406044 0.3494621
000190 52 96 de 3d d5 d6 02 3f ed 44 21 bf 46 79 f6 bc
       0.10868515 0.5110906 -0.629958 -0.030087125
0001a0 c3 63 62 be 59 3c 84 bd 65 f2 9f be b5 f6 ff 3d
       -0.22108369 -0.06456823 -0.3123962 0.124982275
0001b0 ed c4 a7 be f9 c8 9e be 73 c8 fc be f3 b3 f9 3e
       -0.3276743 -0.31012705 -0.4937168 0.48770103
0001c0 80 e3 89 bd 50 a0 22 3e 90 70 2d be cc 7c 97 be
       -0.06732845 0.15881467 -0.1693747 -0.295874
0001d0 24 20 ea 3e f0 44 8d 3e ac bb f6 3e 84 06 ca be
       0.45727646 0.27591658 0.48190057 -0.39458096
0001e0 4c da f0 be 78 5e 19 be c0 be cd bd 40 d1 aa bd
       -0.47041547 -0.14977443 -0.10046148 -0.083406925
0001f0 f0 ac c0 3d 88 ee 18 be 60 64 db 3e 38 89 94 3e
       0.09407985 -0.14934742 0.42850018 0.2901094

sequential/dense_1/MatMul f4 [4, 8]
000000 31 5b 89 3f 38 13 79 3e 44 e5 a2 3f 13 71 90 3f
       1.0730954 0.24323738 1.2726216 1.1284508
000010 06 a5 dd 3e c8 8d c4 3e 10 fa 3e 3f e8 06 eb 3d
       0.43289965 0.3838942 0.74600315 0.11475927
000020 7c 4f 51 3f 83 29 04 bf 3d 58 02 c0 70 9a a4 3e
       0.8176191 -0.5162584 -2.0366356 0.32149076
000030 bf 76 24 3f 10 be 71 3f e3 03 7a 3f 43 8f 14 3f
       0.6424369 0.9443064 0.9766218 0.580311
000040 3e cb 25 bf a2 13 ff 3e 10 45 85 3e 58 72 c6 3d
       -0.6476325 0.49819666 0.26029253 0.09689778
000050 0a ce 92 3e 40 35 44 bc b4 68 1a bf 28 b3 df 3d
       0.2867282 -0.011975586 -0.60316014 0.10922843
000060 cc 0d f7 be ab b1 a3 be d0 ec 8b be 40 1e 2c be
       -0.48252714 -0.31971487 -0.2732911 -0.16808414
000070 a6 5f e9 be f0 25 b4 3d f1 69 d1 be a8 83 35 be
       -0.45580786 0.087962985 -0.4090114 -0.17726004

sequential/dense_2/MatMul f4 [4, 4]
000000 68 6e 03 3f ef f1 86 3f 60 b2 c0 be 5b e4 00 3f
       0.5134034 1.0542582 -0.3763609 0.5034844
000010 36 46 1b 3f b9 a4 7e 3f 35 a7 35 3f 7a a9 a5 be
       0.6065401 0.99470097 0.7095826 -0.32355863
000020 8f 8a cc 3e b0 4a da bd 28 11 e9 3d 12 8c 90 be
       0.39949462 -0.10658777 0.113802254 -0.28231865
000030 94 ce b6 be 64 cd a2 be d2 55 fb 3e ef 4f 07 bf
       -0.35704482 -0.31797326 0.49088913 -0.52856344

sequential/dense_3/MatMul f4 [8, 4]
000000 a2 0c c3 3e 9d a0 22 bf 83 42 26 bf 7b a6 ce be
       0.38095576 -0.63526326 -0.6494524 -0.4036139
000010 47 93 31 bd 70 60 59 3f 9e 5e f4 3f 10 b6 a6 bd
       -0.043353345 0.84912777 1.9091375 -0.081401944
000020 80 3f 02 bc c0 51 3f be 0a 3e 91 3e 02 1a a9 3e
       -0.00794971 -0.18683529 0.28367645 0.33027655
000030 35 a1 1c bf 2e 8f 0f bf c4 6a 10 be 80 20 6d be
       -0.6118348 -0.5607785 -0.14103228 -0.23156929
000040 e5 3f 13 bf e7 fd 07 3f ee 76 eb be 26 cc 58 be
       -0.5751937 0.531218 -0.45989174 -0.21171626
000050 33 d4 58 3f 1d 03 24 3f 96 54 09 c0 a0 91 df 3c
       0.8469879 0.6406725 -2.1457877 0.02729112
000060 ff 0d 9e be 60 ac b6 be d0 f6 8d 3d 0c 05 89 3e
       -0.30870053 -0.35678387 0.069318414 0.26761663
000070 6e f0 85 3f 67 af 1c 3f 3f e2 04 bf a6 68 f6 3e
       1.0463998 0.6120514 -0.51907724 0.48126715

sequential/dense_4/MatMul f4 [16, 8]
000000 10 0b 2a 3e 62 67 06 3f 48 09 ee 3e 00 18 3b 3e
       0.16605783 0.525015 0.46491456 0.18270874
000010 20 9f 18 bd e4 2d 8d be 70 20 bc 3e f2 bf 04 be
       -0.03726113 -0.27574074 0.36743498 -0.12963846
000020 88 5d bd 3e 7a 57 6e 3e a0 4d 8d 3e 20 2b 51 3e
       0.3698542 0.23275557 0.27598286 0.20426607
000030 e0 45 9d 3e d6 f8 e5 be cc 22 d5 3e 89 31 54 3e
       0.30717373 -0.4491641 0.4162811 0.20722021
000040 38 5d ed be 8b 2f f5 3e 08 9f 42 3e d0 84 f8 3d
       -0.46360183 0.47887835 0.19005978 0.12134707
000050 bc 62 c0 3e d9 46 65 be 84 84 b8 be 1b 4e 39 be
       0.37575328 -0.22390307 -0.360386 -0.18096201
000060 b0 ad 1d be 89 99 19 3f 70 63 97 be 50 77 1f 3e
       -0.15398288 0.599999 -0.29568052 0.15572858
000070 2c b1 b6 be f1 52 bc be 0c 56 f0 3e c8 00 9a bd
       -0.35682046 -0.3678203 0.4694065 -0.0751968
000080 68 4f a9 3e 79 cd e2 bd 94 a8 db 3e 5c 3a ee be
       0.33068395 -0.11074347 0.42902052 -0.465289
000090 c8 42 a9 3e b8 3a 6e be 80 79 b0 bd 27 0e fc be
       0.33058763 -0.23264587 -0.08616924 -0.49229547
0000a0 18 f4 52 be 07 59 f0 bd 00 34 6e bd 30 17 cb 3e
       -0.20600927 -0.117357306 -0.05815506 0.39666128
0000b0 6c c2 91 be 71 c8 b4 be 38 13 04 be 61 fb d3 be
       -0.28468645 -0.35309175 -0.12897956 -0.41402724
0000c0 38 6a 6d 3e 7a cc 7c be a4 4d ba 3e c0 aa ad 3e
       0.2318505 -0.24687377 0.3638736 0.33919334
0000d0 d8 8d 4f 3e f2 f3 12 bf 80 2f a0 3e 6c 3a 2c be
       0.20268953 -0.5740348 0.3128624 -0.16819161
0000e0 58 bc 3e be 5f 2c 7c 3d 50 59 87 3d c8 58 18 be
       -0.18626535 0.061565753 0.06608832 -0.14877617
0000f0 00 96 f6 be 62 4b 83 be 10 e8 cd bd c3 ff 15 bf
       -0.48161316 -0.2564345 -0.10054028 -0.58593386
000100 38 de df 3e 0b 9c 44 bc c0 29 fe be 80 d9 5f 3c
       0.43724227 -0.012000094 -0.49641228 0.013662696
000110 5c 4d ae 3e bf b5 b4 be 60 c7 a2 3e 5c 7f a1 be
       0.34043396 -0.3529491 0.31792736 -0.3154248
000120 4c 87 f2 be df 57 17 be c8 54 70 3e 78 09 e5 3e
       -0.47368848 -0.14779614 0.23469841 0.44733787
000130 48 92 43 3e 79 7a aa be a4 ce f1 be da 68 84 be
       0.1909877 -0.33296564 -0.47227967 -0.25861245
000140 78 dd b9 be ed ce 57 3e a8 c9 a2 3e 10 d0 2d be
       -0.3630178 0.2107503 0.31794477 -0.16973901
000150 64 bd a7 3e 85 be 05 bc 80 b0 35 be ed 25 41 bf
       0.3276168 -0.008163099 -0.1774311 -0.75448495
000160 1c 8c ea 3e de 31 61 bd 60 b2 16 3e 9c 9f ae be
       0.4581002 -0.054979198 0.14716482 -0.34106147
000170 50 3b 88 bd b2 15 b4 be 4c 67 e2 3e 38 26 94 be
       -0.06651938 -0.35172802 0.44219434 -0.2893541
000180 e0 7f 7d 3d ac 26 52 be bc a5 9a 3e 54 c0 d6 be
       0.06188953 -0.20522565 0.3020457 -0.4194361
000190 00 79 c1 3d a9 d7 05 bf 98 97 5c 3e 27 03 cd be
       0.09446907 -0.52282196 0.21542203 -0.40041468
0001a0 00 70 30 3a ac b5 d1 be d4 b5 8d 3e 84 ff 93 3e
       0.00067305565 -0.40958917 0.27677786 0.2890588
0001b0 40 77 d7 be 23 22 0e be 50 f8 78 be e3 2a 15 bf
       -0.42083168 -0.1388021 -0.24313474 -0.58268565
0001c0 00 0a db bc 6a b3 8e be 3c e1 c1 be 00 70 16 3c
       -0.026738167 -0.27871257 -0.37867153 0.009181976
0001d0 60 e7 bf 3d 1a ea e3 be a0 c2 98 be 61 e1 c4 be
       0.09370303 -0.44514543 -0.29835987 -0.384532
0001e0 58 d9 2e be d8 1d 69 be 00 45 b0 3c 68 27 8b be
       -0.17075098 -0.2276529 0.021517277 -0.27178502
0001f0 bc 29 af be 53 c1 ba be b4 42 ad 3e d8 6d f8 be
       -0.34211528 -0.3647562 0.33839953 -0.48521304
