autoencoder/autoencoder_quantized.tflite (tflite, 3968 bytes, 5 tensors)

sequential/dense_4/MatMul i1 [16, 8] scale=0.0059408266 zero_point=0
0.16634315 0.52279276 0.46338448 0.18416563 -0.03564496 -0.27327803 0.36833125 -0.13069819
0.36833125 0.23169224 0.27327803 0.2019881 0.30892298 -0.45150283 0.41585785 0.20792893
-0.46338448 0.48120695 0.19010645 0.11881653 0.37427208 -0.22575141 -0.36239043 -0.1782248
-0.15446149 0.6000235 -0.29704133 0.15446149 -0.3564496 -0.36833125 0.4693253 -0.077230744
0.3326863 -0.11287571 0.4277395 -0.46338448 0.3326863 -0.23169224 -0.0891124 -0.4930886
-0.20792893 -0.11881653 -0.059408266 0.39803538 -0.28515968 -0.35050878 -0.13069819 -0.41585785
0.23169224 -0.24951471 0.36239043 0.33862713 0.2019881 -0.5762602 0.3148638 -0.16634315
-0.18416563 0.059408266 0.065349095 -0.14852066 -0.48120695 -0.25545555 -0.10099405 -0.58814186
0.43962118 -0.011881653 -0.49902943 0.011881653 0.33862713 -0.35050878 0.32080463 -0.3148638
-0.47526613 -0.14852066 0.23763306 0.445562 0.19010645 -0.3326863 -0.4693253 -0.26139638
-0.36239043 0.20792893 0.32080463 -0.17228398 0.32674545 -0.0059408266 -0.1782248 -0.75448495
0.45744365 -0.053467438 0.14852066 -0.33862713 -0.065349095 -0.35050878 0.43962118 -0.2911005
0.059408266 -0.20792893 0.30298215 -0.42179868 0.095053226 -0.52279276 0.21386975 -0.39803538
0.0 -0.40991703 0.27921885 0.2911005 -0.42179868 -0.13663901 -0.24357389 -0.582201
-0.029704133 -0.27921885 -0.3802129 0.011881653 0.095053226 -0.445562 -0.29704133 -0.38615373
-0.17228398 -0.22575141 0.023763306 -0.27327803 -0.34456795 -0.36239043 0.33862713 -0.48714778
00000000: 1c58 4e1f fad2 3eea 3e27 2e22 34b4 4623
00000010: b251 2014 3fda c3e2 e665 ce1a c4c2 4ff3
00000020: 38ed 48b2 38d9 f1ad ddec f643 d0c5 eaba
00000030: 27d6 3d39 229f 35e4 e10a 0be7 afd5 ef9d
00000040: 4afe ac02 39c5 36cb b0e7 284b 20c8 b1d4
00000050: c323 36e3 37ff e281 4df7 19c7 f5c5 4acf
00000060: 0add 33b9 10a8 24bd 00bb 2f31 b9e9 d79e
00000070: fbd1 c002 10b5 cebf e3da 04d2 c6c3 39ae

sequential/dense_3/MatMul i1 [8, 4] scale=0.016895967 zero_point=0
0.38860723 -0.64204675 -0.64204675 -0.4055032 -0.0506879 0.8447983 1.9092442 -0.08447983
0.0 -0.18585563 0.28723145 0.33791932 -0.6082548 -0.5575669 -0.13516773 -0.23654354
-0.5744629 0.523775 -0.4561911 -0.21964757 0.8447983 0.64204675 -2.1457877 0.033791933
-0.3041274 -0.3548153 0.06758387 0.27033547 1.04755 0.6082548 -0.523775 0.47308707
00000000: 17da dae8 fd32 71fb 00f5 1114 dcdf f8f2
00000010: de1f e5f3 3226 8102 eeeb 0410 3e24 e11c

sequential/dense_2/MatMul i1 [4, 4] scale=0.008301246 zero_point=0
0.5146772 1.0542582 -0.37355608 0.506376 0.60599095 0.99614954 0.7056059 -0.3237486
0.3984598 -0.1079162 0.11621744 -0.28224236 -0.3569536 -0.31544736 0.4897735 -0.53127974
00000000: 3e7f d33d 4978 55d9 30f3 0ede d5da 3bc0

sequential/dense_1/MatMul i1 [4, 8] scale=0.016036501 zero_point=0
1.0744456 0.24054752 1.2668836 1.1225551 0.43298554 0.384876 0.7537156 0.112255506
0.81786156 -0.51316804 -2.0366356 0.32073003 0.64146006 0.9461536 0.97822654 0.577314
-0.64146006 0.49713153 0.25658402 0.096219 0.288657 -0.016036501 -0.60938704 0.112255506
-0.48109505 -0.32073003 -0.27262053 -0.16036502 -0.44902202 0.08018251 -0.41694903 -0.17640151
00000000: 430f 4f46 1b18 2f07 33e0 8114 283b 3d24
00000010: d81f 1006 12ff da07 e2ec eff6 e405 e6f5

sequential/dense/MatMul i1 [8, 16] scale=0.010737322 zero_point=0
0.06442393 0.3865436 0.2469584 -0.021474645 -0.3435943 0.60129005 0.59055275 0.17179716
-0.04294929 -0.12884787 0.35433164 -0.21474645 -0.30064502 0.79456186 -0.45096755 -0.45096755
0.010737322 -0.39728093 0.1395852 0.05368661 -0.08589858 0.23622109 0.1395852 0.41875556
-0.3865436 0.32211965 -0.45096755 0.18253449 0.4831795 0.10737322 0.20400912 0.075161256
0.45096755 0.4831795 0.8589858 0.7194006 0.22548378 -0.4831795 0.6871886 0.966359
0.05368661 -0.10737322 0.0966359 0.22548378 0.075161256 0.20400912 -0.8697231 -0.75161254
0.66571397 0.1395852 0.2899077 0.6764513 0.47244218 0.15032251 -0.032211967 0.2791704
0.1932718 0.032211967 0.5583408 0.22548378 -0.17179716 0.88046044 0.30064502 -0.5690781
-0.23622109 -0.2899077 -0.6979259 0.10737322 -0.7086633 0.31138235 -0.89119774 0.3865436
-0.7838245 -0.032211967 -1.36364 -0.46170485 -0.633502 -0.10737322 0.36506897 0.31138235
0.17179716 0.30064502 -0.16105983 0.3435943 0.37580627 0.3865436 -0.25769573 0.06442393
0.010737322 -0.46170485 -0.95562166 -0.6764513 -0.59055275 0.032211967 0.7838245 0.74087524
0.032211967 0.08589858 -0.0966359 0.35433164 0.10737322 0.51539147 -0.633502 -0.032211967
-0.22548378 -0.06442393 -0.31138235 0.12884787 -0.33285698 -0.31138235 -0.4939168 0.4831795
-0.06442393 0.16105983 -0.17179716 -0.30064502 0.46170485 0.2791704 0.4831795 -0.39728093
-0.47244218 -0.15032251 -0.0966359 -0.08589858 0.0966359 -0.15032251 0.4294929 0.2899077
00000000: 0624 17fe e038 3710 fcf4 21ec e44a d6d6
00000010: 01db 0d05 f816 0d27 dc1e d611 2d0a 1307
00000020: 2a2d 5043 15d3 405a 05f6 0915 0713 afba
00000030: 3e0d 1b3f 2c0e fd1a 1203 3415 f052 1ccb
00000040: eae5 bf0a be1d ad24 b7fd 81d5 c5f6 221d
00000050: 101c f120 2324 e806 01d5 a7c1 c903 4945
00000060: 0308 f721 0a30 c5fd ebfa e30c e1e3 d22d
00000070: fa0f f0e4 2b1a 2ddb d4f2 f7f8 09f2 281b
