dnn/dnn.tflite (tflite, 11544 bytes, 11 tensors)

sequential_2/quant_dense_14/LastValueQuant/FakeQuantWithMinMaxVars f4 [8, 2]
0	0xbd292840	-0.04129815
1	0xbce18b00	-0.0275321
2	0xbe4559a0	-0.1927247
3	0x3e252132	0.16125944
4	0xbe3740f0	-0.17895865
5	0x3e2d2f4e	0.16912577
6	0xbe292840	-0.1651926
7	0x3e57795e	0.21042392
8	0x3e516ec9	0.20452417
9	0xbe3b47fe	-0.18289182
10	0x3c415292	0.011799471
11	0xbc211a25	-0.0098328935
12	0x3e7fbfe7	0.24975549
13	0xbe3d4b85	-0.1848584
14	0xbe2d2f4e	-0.16912577
15	0x3e3f4f0c	0.18682498

sequential_2/quant_dense_14/MatMul;sequential_2/quant_dense_14/LastValueQuant/FakeQuantWithMinMaxVars f4 [2, 8]
0	0xbd292840	-0.04129815
1	0xbe4559a0	-0.1927247
2	0xbe3740f0	-0.17895865
3	0xbe292840	-0.1651926
4	0x3e516ec9	0.20452417
5	0x3c415292	0.011799471
6	0x3e7fbfe7	0.24975549
7	0xbe2d2f4e	-0.16912577
8	0xbce18b00	-0.0275321
9	0x3e252132	0.16125944
10	0x3e2d2f4e	0.16912577
11	0x3e57795e	0.21042392
12	0xbe3b47fe	-0.18289182
13	0xbc211a25	-0.0098328935
14	0xbe3d4b85	-0.1848584
15	0x3e3f4f0c	0.18682498

sequential_2/quant_dense_10/BiasAdd/ReadVariableOp f4 [4]
0	0xbd7cf71d	-0.061759103
1	0x3e0dcdce	0.1384804
2	0xbd5d443a	-0.054020144
3	0x00000000	0.0

sequential_2/quant_dense_11/BiasAdd/ReadVariableOp f4 [8]
0	0x3da29527	0.07938605
1	0x3e465fb2	0.19372442
2	0x3da92661	0.08259273
3	0xbd61bf81	-0.055114273
4	0x3dcbca15	0.099506535
5	0xbd489127	-0.048966553
6	0xbd42995e	-0.047509544
7	0x00000000	0.0

sequential_2/quant_dense_12/BiasAdd/ReadVariableOp f4 [16]
0	0xbce3e199	-0.027817534
1	0xbd3b244b	-0.04568891
2	0x3c7f7b11	0.015593306
3	0x00000000	0.0
4	0x3e1d74db	0.15376608
5	0x3def9531	0.11698378
6	0xbb0dec51	-0.0021655748
7	0xbd01bcda	-0.031674244
8	0x00000000	0.0
9	0x3c69c33d	0.01426774
10	0xbcbdac95	-0.023153583
11	0x00000000	0.0
12	0xbd33736a	-0.04381124
13	0x3dc0c5c5	0.094127215
14	0xba92edf1	-0.0011209828
15	0x00000000	0.0

sequential_2/quant_dense_13/BiasAdd/ReadVariableOp f4 [8]
0	0xba7e5a4d	-0.0009702787
1	0xbd0429bf	-0.032266375
2	0xbd3e7118	-0.046494573
3	0xbd1f0ec4	-0.03883244
4	0x3e2d3887	0.16916095
5	0xb9cc0fef	-0.00038921784
6	0x3e2eafa4	0.17059189
7	0xbd193792	-0.03740651

sequential_2/quant_dense_14/BiasAdd/ReadVariableOp f4 [2]
0	0x3de5dcde	0.11223768
1	0xbde5e014	-0.1122438

sequential_2/quant_dense_10/MatMul f4 [4, 16]
0	0xbd361d50	-0.04446155
1	0x3d9de23c	0.077091664
2	0x3b943ab1	0.004523598
3	0x3c1138f0	0.008863673
4	0xbe192d5d	-0.14958711
5	0xbd7efac8	-0.062250882
6	0x3d573177	0.052537408
7	0x3d4b6ee6	0.049666308
8	0xbe561333	-0.20905761
9	0xbe89c51d	-0.26908198
10	0x3dfb0d51	0.12258399
11	0x3d8262cd	0.06366501
12	0xbf66e347	-0.9019055
13	0xbf18bc45	-0.59662277
14	0x3d5f607d	0.054535378
15	0xbe481f2f	-0.19543146
16	0x3d9eb85b	0.07750007
17	0x3d3a8b9c	0.045543298
18	0x3de996ee	0.11405741
19	0x3bd5c3ea	0.006523599
20	0x3e2b9d45	0.16759212
21	0x3e063909	0.13107695
22	0x3d8e78cd	0.06956635
23	0x3dcbf744	0.099592716
24	0x3e800f25	0.25011554
25	0x3ea4175a	0.32049066
26	0xbd82a6b9	-0.06379456
27	0x3c50419e	0.012710957
28	0x3f718a61	0.94351774
29	0x3f22d8b3	0.63611907
30	0x3d4eca73	0.05048604
31	0x3e79f392	0.24409321
32	0xbd970c09	-0.073753424
33	0x3d15627c	0.036470875
34	0x3d0c89f4	0.03431125
35	0x3d881520	0.06644654
36	0xbd9bffd9	-0.076171584
37	0xbcafea69	-0.02147408
38	0xbc830d3b	-0.01599752
39	0x3d1da31b	0.038485628
40	0xbe7b602f	-0.2454841
41	0xbe4d9052	-0.20074585
42	0x3e054684	0.13015181
43	0x3d2504aa	0.04028765
44	0xbf686efe	-0.9079436
45	0xbf1436e7	-0.57896274
46	0x3da8c81c	0.08241293
47	0xbe4e19c5	-0.20127018
48	0xbcfbce33	-0.030737972
49	0xbc8bff5a	-0.017089535
50	0x3cea9e8e	0.028640058
51	0xbc960bb4	-0.018316127
52	0x3cb0830e	0.021546867
53	0xba5fc980	-0.0008536801
54	0xbd28b436	-0.041187488
55	0x3d44bb39	0.048030112
56	0xbc872634	-0.016497709
57	0xbd0a65fa	-0.03378866
58	0x3c4b3b80	0.012404323
59	0xbb5e2060	-0.0033893809
60	0xbbabe468	-0.005245734
61	0xbd4515d0	-0.048116505
62	0xbd2b3996	-0.041802965
63	0xbc152f00	-0.009105444

sequential_2/quant_dense_11/MatMul f4 [8, 4]
0	0xbdbf5e53	-0.09344163
1	0x3d9665a1	0.07343603
2	0xbe3e1962	-0.1856437
3	0xbcc5fdfa	-0.024168957
4	0xbd957a69	-0.072987385
5	0x3e48ccc4	0.19609362
6	0xbd966035	-0.07342569
7	0x3d239277	0.0399346
8	0xbe1d6e02	-0.15373996
9	0x3d7db838	0.061943263
10	0xbe252e00	-0.16130829
11	0x3cf9910e	0.030464675
12	0x3e1fe445	0.15614422
13	0x3d2e32d9	0.04252896
14	0x3e0f7b53	0.14011888
15	0x3d480503	0.048832905
16	0xbe23bfbe	-0.15991113
17	0x3d6127cd	0.054969598
18	0xbe143d9f	-0.14476632
19	0x3d04fd19	0.032467935
20	0x3dd54eed	0.104154445
21	0x3cf8bbb6	0.030362945
22	0x3e2ad173	0.16681461
23	0xbd2751e0	-0.040849566
24	0x3e0fdffa	0.14050284
25	0x3d02c25a	0.03192363
26	0x3e21d0d7	0.15802322
27	0x3d18b5e7	0.03728285
28	0x3ab3bba0	0.0013712533
29	0xbcd1f9c7	-0.025631798
30	0xbd0fad03	-0.035077106
31	0xbd11f610	-0.035635054

sequential_2/quant_dense_12/MatMul f4 [16, 8]
0	0xbd9c8a50	-0.076435685
1	0x3d9bc651	0.07606185
2	0xbd693ef9	-0.05694482
3	0x3dbb3ace	0.091420755
4	0xbe1ca8c6	-0.15298757
5	0x3e15bc38	0.14622581
6	0x3e013747	0.12618743
7	0x3d412923	0.04715837
8	0xbd974ad2	-0.07387318
9	0x3d192956	0.037392937
10	0xbe14bf2a	-0.14526048
11	0x3de1a658	0.11018056
12	0xbe11ef36	-0.14251408
13	0x3db7d7d6	0.08976714
14	0x3e0f9059	0.14019908
15	0x3cacbf72	0.021087382
16	0xbb61e376	-0.0034467853
17	0xbcf95029	-0.030433731
18	0x3d75cd9d	0.06001054
19	0x3cfb24b0	0.030657142
20	0x3d95b6dc	0.07310268
21	0xbcaf8db6	-0.021429878
22	0xbc3b2e8d	-0.011424673
23	0x3d27ac29	0.04093567
24	0xbc58bcf4	-0.013228644
25	0xbd077d6a	-0.03307859
26	0x3c5a6334	0.013329316
27	0xbccef873	-0.025264954
28	0xbd1b5c33	-0.037929725
29	0x3cbeca12	0.023289714
30	0xbd418dea	-0.04725448
31	0x3c5763f4	0.013146389
32	0x3e2f7788	0.17135441
33	0x3e438409	0.19093336
34	0x3e767a0d	0.24069996
35	0x3cd9a90b	0.026569864
36	0x3e63e37a	0.22254744
37	0x3bd9d655	0.006647865
38	0x3d088a08	0.03333476
39	0x3d2cb3bd	0.0421636
40	0x3e3a10cd	0.18170471
41	0x3dfac429	0.12244446
42	0x3e38f812	0.18063381
43	0xbd98967f	-0.0745058
44	0x3e36a772	0.17837313
45	0xbda6b08e	-0.08139144
46	0xbd3331d3	-0.043748688
47	0xbbc100d0	-0.0058899894
48	0xbcabf550	-0.020990998
49	0x3c98e658	0.018664524
50	0xbd3d01a7	-0.046144154
51	0xbcf8aba5	-0.030355284
52	0x3be39ec9	0.006946419
53	0xbd1c5a10	-0.038171828
54	0x3d094141	0.033509497
55	0x3bb561b0	0.005535327
56	0xbdb8f76b	-0.09031566
57	0x3c64821a	0.013947034
58	0xbe0de5b7	-0.1385716
59	0x3e0f3cfc	0.13988107
60	0xbe2d9d03	-0.16954426
61	0x3e1a71ff	0.15082549
62	0x3e1ea228	0.15491545
63	0x3d2c7261	0.042101268
64	0xbd2aaf23	-0.04167093
65	0xbcb5df8d	-0.022201324
66	0x3bd7ff68	0.006591726
67	0x3cb76966	0.022389125
68	0x3d0c0b09	0.03419021
69	0xbd0ffa46	-0.03515079
70	0xbc7330cc	-0.014843177
71	0x3c45e1d8	0.012077771
72	0x3d93157e	0.07181834
73	0x3e01ee6a	0.12688604
74	0xbd162edb	-0.03666578
75	0x3df89f4c	0.121397585
76	0x3be6c94f	0.007043041
77	0x3e2a9b84	0.16660887
78	0x3db4da4d	0.088307
79	0x3b9a3218	0.0047056787
80	0xbd8be164	-0.06830099
81	0x3a1f774a	0.0006083144
82	0xbde67581	-0.11252881
83	0x3da5ddd3	0.0809895
84	0xbd802117	-0.062563114
85	0x3e15b5b9	0.14620103
86	0x3de7ca2c	0.11317858
87	0xbd06032d	-0.032717872
88	0xbb919950	-0.004443325
89	0xbd13f940	-0.036126375
90	0x3ca8cf72	0.02060673
91	0xbd29853a	-0.04138682
92	0x3d09597d	0.03353261
93	0x3cb7d17a	0.022438753
94	0xbd396797	-0.045264807
95	0x3c8c9a1a	0.017163325
96	0xbd3bd6ba	-0.045859076
97	0x3cd65e5c	0.02616804
98	0xbde24159	-0.1104762
99	0x3e0ba5ed	0.13637514
100	0xbe204683	-0.15651898
101	0x3e01b718	0.12667501
102	0x3dfac339	0.12244267
103	0xbd3ee44d	-0.046604443
104	0x3e435e48	0.19078934
105	0x3df13aa0	0.1177876
106	0x3e4dfcf7	0.2011603
107	0xbc249332	-0.01004486
108	0x3e1830a0	0.14862299
109	0xbd3fb9c6	-0.046808027
110	0xbde95f55	-0.11395136
111	0x3b2bb0a0	0.0026197806
112	0xbcaf2be7	-0.021383239
113	0xbc48ef18	-0.012264036
114	0x3c1bfb74	0.0095204
115	0xbcd3528a	-0.025796194
116	0xbd04d683	-0.032431137
117	0x3d28c305	0.04120161
118	0xbd18197b	-0.037133675
119	0xbd32b5fd	-0.04363059
120	0xbbf61200	-0.00750947
121	0xbb408f30	-0.0029382221
122	0xbd34b5da	-0.04411874
123	0xbd3b7cc0	-0.045773268
124	0xbce88200	-0.028382301
125	0xbc1884cc	-0.009309005
126	0xbca95aba	-0.020673145
127	0xbc8bb4ec	-0.017054044

sequential_2/quant_dense_13/MatMul f4 [8, 16]
0	0x3d052372	0.032504506
1	0xbd19ae34	-0.03751965
2	0xbce5d273	-0.028054452
3	0x3a8e8e00	0.001087606
4	0xbc90c689	-0.017672794
5	0xbcf49c11	-0.029859575
6	0xbb8d0c18	-0.00430442
7	0xbd023659	-0.03179011
8	0xbc8c7eda	-0.017150331
9	0x3ca08c3e	0.019598123
10	0xba8b6400	-0.0010634661
11	0x3c4230d8	0.011852466
12	0xb90e56cf	-0.00013574514
13	0x3c32f6b8	0.01092308
14	0xbbc672b0	-0.0060561523
15	0xba861fa0	-0.0010232814
16	0x3e214b72	0.15751436
17	0x3e3599de	0.17734477
18	0xbc4cdb92	-0.0125035215
19	0x3d36d149	0.044633184
20	0xbd477368	-0.048694044
21	0xbe1cf93a	-0.15329447
22	0x3cdd3430	0.027002424
23	0x3e06a7ed	0.13149996
24	0xbd4c582d	-0.04988878
25	0x3e09b84e	0.13449213
26	0x3e1998c7	0.14999686
27	0x3bcece98	0.006311249
28	0x3e140b33	0.14457397
29	0xbdbfe67d	-0.09370134
30	0xbd12c39c	-0.03583108
31	0x3b7d02d0	0.0038606413
32	0x3e1fe88d	0.15616055
33	0x3dee9555	0.116495766
34	0xbb97a38e	-0.0046276515
35	0xbd15e8ad	-0.03659885
36	0xbb84802f	-0.004043601
37	0xbde812c5	-0.11331705
38	0x3c4191a3	0.011814508
39	0x3e2f7cf2	0.17137507
40	0xbd0ea49a	-0.034824945
41	0x3d2b421b	0.04181109
42	0x3e00f249	0.12592424
43	0x3c887c22	0.016660754
44	0x3df31cfa	0.11870761
45	0xbdcf5a91	-0.10124696
46	0xbd0bd356	-0.034137093
47	0xbd3372ca	-0.043810643
48	0x3e211da9	0.1573397
49	0x3e1dd87e	0.15414616
50	0x3d48f6ab	0.049063366
51	0xbca50680	-0.020144701
52	0xbcd83d0c	-0.026396297
53	0xbe1df2cd	-0.15424652
54	0x3cdb283b	0.026752582
55	0x3e37ab04	0.17936331
56	0xbb39cfa0	-0.0028352514
57	0x3dee9275	0.11649028
58	0x3e353668	0.17696536
59	0xbcabbf7a	-0.020965327
60	0x3e272e6e	0.16326305
61	0xbdfc90a2	-0.12332274
62	0xbce6ecd3	-0.028189098
63	0x3c3d2bb4	0.011546064
64	0x3c954248	0.018220082
65	0xbe12cb7e	-0.14335439
66	0x3c4dbd7d	0.012557385
67	0xbc5acce8	-0.0133545175
68	0x3e440440	0.19142246
69	0x3e4b0109	0.19824614
70	0x3b876875	0.0041323253
71	0xbdeed986	-0.11662583
72	0x3a8d0600	0.0010759234
73	0x3d8981c2	0.067142025
74	0xbda1ddab	-0.07903608
75	0xbcfefc20	-0.031126082
76	0xbda0f7c4	-0.078597575
77	0x3e578759	0.21047725
78	0xbd38c38e	-0.04510837
79	0x3b4ce500	0.0031264424
80	0xbcd88f9b	-0.026435664
81	0xbce4b29e	-0.027917203
82	0x3c9ed16e	0.019386973
83	0x3c481058	0.012210928
84	0xbb368fb9	-0.0027856661
85	0xbc8e6070	-0.01737997
86	0xbd46a730	-0.048499286
87	0x3c6aa51b	0.014321591
88	0x3cd1e502	0.025621895
89	0xbc537242	-0.012905659
90	0x3ccea109	0.025223272
91	0x3d41159d	0.047139753
92	0x3d00c54e	0.031438164
93	0xbc0a8b62	-0.008456083
94	0x3d158c15	0.036510546
95	0x3c2fd768	0.010732509
96	0xbc1e2974	-0.009653438
97	0xbe111914	-0.14169723
98	0x3da907e4	0.08253458
99	0xbc6748cc	-0.014116477
100	0x3e6836da	0.22677174
101	0x3e7e4f4e	0.2483494
102	0x3b9bce0a	0.0047547864
103	0xbe071ec9	-0.13195337
104	0x3d43052d	0.047612358
105	0x3dcfb8c1	0.10142661
106	0xbe1d5132	-0.15363005
107	0xb694c000	-4.4330955e-06
108	0xbd5460c8	-0.05185011
109	0x3e6bc898	0.23025739
110	0xbc68854e	-0.014191939
111	0xbcfa4acd	-0.030553246
112	0x3e079027	0.13238584
113	0x3e3f338c	0.18672007
114	0x3bfd9c44	0.0077395756
115	0x3c204e28	0.009784259
116	0xbc76b0ea	-0.015056828
117	0xbddacd15	-0.106836475
118	0xbcab10eb	-0.02088209
119	0x3e4a9819	0.19784583
120	0xbc55d9b4	-0.013052393
121	0x3d9653d0	0.07340205
122	0x3e32e5c1	0.17470457
123	0x3d47cead	0.048781086
124	0x3dc677c6	0.09690814
125	0xbdd3fc21	-0.10350824
126	0xbd497377	-0.04918238
127	0x3c7191f4	0.014744271
