dnn/dnn.tflite (tflite, 11496 bytes, 11 tensors)

sequential_1/quant_dense_9/LastValueQuant/FakeQuantWithMinMaxVars f4 [8, 2]
00000000: 1d29 6dbe 3670 823e 691b 9e3e 7954 a7be
00000010: de4b 8e3d a8f8 7cbc c5a5 283b 0000 0000
00000020: 36cf d2bc 691b 1e3d 9359 dd3d f3ea adbd
00000030: 1056 7abe 36cf 523e 43a2 45be b006 893e
-0.23160215 0.25476235 0.30880287 -0.32681635 0.06948064 -0.015440144 0.0025733572 0.0
-0.025733571 0.03860036 0.108081006 -0.08492079 -0.24446893 0.20586857 -0.19300179 0.26762915

sequential_1/quant_dense_9/MatMul;sequential_1/quant_dense_9/LastValueQuant/FakeQuantWithMinMaxVars f4 [2, 8]
00000000: 1d29 6dbe 691b 9e3e de4b 8e3d c5a5 283b
00000010: 36cf d2bc 9359 dd3d 1056 7abe 43a2 45be
00000020: 3670 823e 7954 a7be a8f8 7cbc 0000 0000
00000030: 691b 1e3d f3ea adbd 36cf 523e b006 893e
-0.23160215 0.30880287 0.06948064 0.0025733572 -0.025733571 0.108081006 -0.24446893 -0.19300179
0.25476235 -0.32681635 -0.015440144 0.0 0.03860036 -0.08492079 0.20586857 0.26762915

sequential_1/quant_dense_5/BiasAdd/ReadVariableOp f4 [4]
00000000: d6ba d73d 0000 0000 e602 6fb9 d8fd 3abd
0.10533683 0.0 -0.00022793896 -0.04565224

sequential_1/quant_dense_6/BiasAdd/ReadVariableOp f4 [8]
00000000: 0000 0000 0000 0000 0000 0000 c2fb 37bd
00000010: 5322 77bb 68e0 9dbc fa78 143e 0000 0000
0.0 0.0 0.0 -0.04491783 -0.0037709668 -0.019272044 0.14499274 0.0

sequential_1/quant_dense_7/BiasAdd/ReadVariableOp f4 [16]
00000000: 0000 0000 6c1d 153e 1490 ae3d 0000 0000
00000010: 52dc acbc b47a 1ebc 09eb c8bc 1470 b7bc
00000020: b883 1bbd 0000 0000 f73d 04bd 48e4 673e
00000030: 9a7e 8cba 30c7 0c3c e235 223e d6e6 0a3c
0.0 0.14562005 0.085235745 0.0 -0.02110115 -0.009672809 -0.024526136 -0.02239231
-0.037967414 0.0 -0.032285657 0.22645676 -0.0010718883 0.008592412 0.15840867 0.008477887

sequential_1/quant_dense_8/BiasAdd/ReadVariableOp f4 [8]
00000000: 38ef c2bc 43ec 723e b41d e03c 6af0 2dbb
00000010: ddef 1cba d64e e03c f8ca 9cbc 367f 80bc
-0.023795709 0.23722939 0.027357914 -0.0026541003 -0.000598667 0.027381342 -0.019139752 -0.015685659

sequential_1/quant_dense_9/BiasAdd/ReadVariableOp f4 [2]
00000000: 29e6 113e 29e6 11be
0.14247955 -0.14247955

sequential_1/quant_dense_5/MatMul f4 [4, 16]
00000000: 6625 e83d d844 5fbd 12bd 8a3d a347 0e3d
00000010: 0566 393e 54cd 3c3d d28b 063e 4452 aa3d
00000020: ec86 923e 40ed 5d3e f4f7 3ebd d90e d93c
00000030: 8041 763f eb79 3c3f a775 13bc 997a 893e
00000040: 5384 d5bc ed62 003d 80df 99bb 8019 e1bc
00000050: 7472 5c3c 40cf 2b3a 47ad 2d3d 7345 cbbc
00000060: d3ff b0bc 260e 8f3c e6e4 cf3c f008 03bd
00000070: 405f 053c dde4 073d 193e 093d e16b 2d3d
00000080: 6079 273d 349c 57bd a358 fbbc 1001 01bc
00000090: 6bf4 7fbc 77c3 d63c 03f3 333d b9bf cd39
000000a0: eea3 07bd 814a 713c 0deb 96bc 37b2 40bd
000000b0: 81d5 963b 5157 a7bb 00cd 183c 92a0 2bbd
000000c0: 1a36 c1bd e799 8d3d 401e 183d 5689 8e3d
000000d0: f6b4 ccbd 1f2a 943b 9694 1b3c ef11 c73c
000000e0: 5d71 83be ea77 66be 56fd 153e a6c1 a83c
000000f0: 05d8 7dbf 6568 37bf 3b87 383d b2cf 22be
0.11335258 -0.054509014 0.067743436 0.034736287 0.18105324 0.046094254 0.13139275 0.08316472
0.28618562 0.21672535 -0.046623185 0.026496338 0.96193695 0.7362353 -0.0090002185 0.26851347
-0.026064074 0.031344343 -0.0046958327 -0.02747798 0.013455022 0.0006554015 0.04240158 -0.02481339
-0.021606361 0.017462801 0.025377702 -0.031990945 0.008140385 0.033177245 0.033506487 0.04233921
0.040887237 -0.0526392 -0.030681914 -0.0078737885 -0.015622239 0.026216252 0.043932926 0.00039243491
-0.03311532 0.014727236 -0.018422628 -0.04704496 0.0046030884 -0.0051068445 0.00932622 -0.04190118
-0.09434147 0.0691412 0.037138224 0.069597885 -0.09995453 0.004521623 0.009495875 0.024300544
-0.25672427 -0.22506681 0.14647421 0.020600151 -0.99157745 -0.7164367 0.04505084 -0.15899542

sequential_1/quant_dense_6/MatMul f4 [8, 4]
00000000: 8a46 0bbd ad88 063d 71ba 093d a663 853c
00000010: 66d6 10bd 8900 1f3d e4aa 743c 509e 9f3b
00000020: 6859 9fbb e89b f8bb 0087 d63b 2a3d 22bd
00000030: 30a1 3cbc e4ea 593c ecab b63b a8fb 583e
00000040: ede7 4dba 9838 e8bb 477e 3abc 8eb0 cebc
00000050: ca53 393c 0dbf dbbc c0f6 d7bb 86fb 553e
00000060: 983d 133e 9923 3a3d 2e66 23bd bdaa 16be
00000070: 4674 85bc 8018 15bc ada7 043d e618 1cbd
-0.03400282 0.032845188 0.03362507 0.016282868 -0.035360716 0.03881887 0.014933322 0.0048711672
-0.004862953 -0.007586945 0.006546855 -0.03960911 -0.0115130395 0.013300631 0.005574694 0.21189749
-0.0007854689 -0.0070868246 -0.011382646 -0.025230672 0.011311481 -0.026824499 -0.006590694 0.2089673
0.14378965 0.045444105 -0.039892368 -0.14713569 -0.016290795 -0.00910008 0.03238647 -0.038109683

sequential_1/quant_dense_7/MatMul f4 [16, 8]
00000000: a36d 1d3d 0030 7bb7 26ae 853c 4cc2 22bc
00000010: 17ed 173d 8064 cdbb 63ea 42bd a920 2f3d
00000020: 8c4a 23bc ad87 abbc da5c cbbc 8a8c 44be
00000030: c3c9 393a d513 bcbd e60e 503e 7afb 29bd
00000040: 93fb 103d 001d 85bc 68e0 a0bb ad71 193e
00000050: 6628 41bd 8c41 613e 5ec0 843e e850 f0bb
00000060: 0034 4038 6d0b a2bc a00f 9fbc 0086 ecb8
00000070: aeec d63c 004a 67bc 40bd c5bc f719 48bd
00000080: 6805 ffbb c4eb 02bd 306c 0bbb 1c8b 633e
00000090: 2be4 093d eb85 0c3e 3c1a 6cbd 098e 093d
000000a0: ddcc 3f3d b471 4c3c f911 163d ec95 2fbd
000000b0: f286 a63c 79c4 9e3c 42f8 1cbc d33d e4bc
000000c0: c0a5 acbc 6d7e 10bd 0732 023d 073a 623e
000000d0: 0747 f23b 632e 2e3e 2b9b 8fbd 98c1 b4bb
000000e0: 07cf a4bc 039b 093d 0024 16bc cd52 3d3e
000000f0: 5991 143d dc82 4d3e a774 9dbd 1a6c 0cbd
00000100: 6090 32bd 30fa 03bb dc9d 573c 987e 4e3e
00000110: d46e f0bc 5418 163e d157 57bd ac28 93bc
00000120: 37e5 033d 705f 2ebd 9842 67bc 460e 0cbd
00000130: 000c 693a 2ddc debc c01a 09bd cc4a 4cbc
00000140: b4b5 2c3c ce7a b83c a074 9ebc bec4 5b3e
00000150: 38d8 11bd 3b1e 123e ecc9 77bd c6d2 a33c
00000160: e007 d8bc 8af5 04bd 8037 903b 38f2 15be
00000170: 78fc 5ebc 22b9 82bc eaed 773e 6da9 02bd
00000180: 18c5 79bc a25d f43c 609c 653b 5ecb 37bc
00000190: ad93 023d de03 0ebb a6f2 bab9 44d6 6a3c
000001a0: 295b 153d 807a 02ba 1287 9a3c 5faf cd3c
000001b0: 0096 d5bb b9f0 a1ba 41b0 d9bc d249 823c
000001c0: d8bc 33bc 23bb 3fbd 462c 2abd 8a09 4abe
000001d0: 420e 1fbd bd59 aebd fd5c 5a3e a085 88ba
000001e0: cc64 4f3c 2099 13bd 270f bcbc 9c1f 193d
000001f0: 1a37 863c d85e 41bc f8e5 14bd 590f 4b3d
0.038434636 -1.4971942e-05 0.016318392 -0.009934019 0.03709134 -0.006268084 -0.04758681 0.042755757
-0.009966504 -0.020938719 -0.024824549 -0.19194236 0.0007087255 -0.0918347 0.20318183 -0.041499592
0.03539617 -0.01624918 -0.004909564 0.1498477 -0.047157668 0.2199766 0.25928015 -0.0073338635
4.5824796e-05 -0.019780839 -0.01941663 -0.000112783164 0.026235905 -0.014116764 -0.024138093 -0.048852887
-0.007782627 -0.031963125 -0.0021274202 0.22221035 0.033664864 0.1372296 -0.057642207 0.03358272
0.046826232 0.012478281 0.036638234 -0.042867586 0.020328019 0.019380795 -0.009580674 -0.027861511
-0.02107513 -0.03527682 0.03178599 0.22092448 0.007393721 0.17009883 -0.07012018 -0.0055162422
-0.02011825 0.033595096 -0.0091638565 0.18488617 0.036271427 0.2006945 -0.07688265 -0.03428278
-0.043594718 -0.0020138137 0.013160195 0.20165479 -0.029349722 0.14657718 -0.052573983 -0.01796373
0.03220102 -0.042571485 -0.014114998 -0.0341933 0.0008890033 -0.027204597 -0.033472776 -0.012469005
0.010541368 0.022519495 -0.01934272 0.2146177 -0.035606593 0.14269345 -0.060495302 0.019997966
-0.026370943 -0.032460727 0.0044011474 -0.1464318 -0.013609998 -0.015957419 0.24211851 -0.03189986
-0.015244745 0.029829804 0.0035035834 -0.01121792 0.031879116 -0.0021669785 -0.00035657472 0.0143333115
0.03646389 -0.00049773604 0.018863235 0.025108038 -0.0065181255 -0.0012355066 -0.026573302 0.01590434
-0.010970317 -0.046809327 -0.04154613 -0.19730201 -0.038831957 -0.0851321 0.21324535 -0.00104158
0.012658309 -0.036034703 -0.022956444 0.03738366 0.016383696 -0.011802398 -0.036352128 0.049575184

sequential_1/quant_dense_8/MatMul f4 [8, 16]
00000000: 4de4 cebc 4951 55be c2ca 0c3e 4007 c43a
00000010: 9079 5f3e 42a3 e13c 8ce2 7c3e 37d8 393e
00000020: 273b 1d3e e7f5 1e3d 4205 6c3e 8754 88bd
00000030: 480c dbbc 1279 febc 7532 58be 173d 49bd
00000040: d745 3bbd d144 a73e 00ef 7a3e f4cd 65bc
00000050: 0ff4 53be 8ae7 a4bc 6e7d 7cbe c075 7fbe
00000060: 74d0 2fbe a6f8 d43c d261 85be e892 a73e
00000070: 195c 04bd 6782 2d3d f63e a93e 12ab 933c
00000080: 9a2e 1dbd 6326 e23d 1da0 9c3b c4f4 5c3c
00000090: e453 8f3c 30df 2abb dd96 fa3c dc81 b0bc
000000a0: dcb2 2bbb f157 443d ad6c e1bc b21a a23d
000000b0: 3362 d0bc 374f 073b 2adf 0b3d d55e 1c3d
000000c0: 9c81 5c3c 12c7 f4bc 077b 8abb 37f0 0d3d
000000d0: c0dc ac3c 5013 a9bb 95ec 20bd ddee 8f3c
000000e0: f386 ae3b 8c74 253c f7a0 32bc 2b63 913c
000000f0: b32e 063d 1aca d33c 2440 89bb d022 b1bb
00000100: 44bf 673c d26e c73c eeff cbbc cec9 b93c
00000110: 491c cd3c d8c6 4ebc 4f06 80ba c2fc b5bc
00000120: fb82 0c3c 4050 e0bc 1151 733c b38e 43bd
00000130: 6878 76bc 66e5 c13c 305f aa3b cc77 2fbc
00000140: 9ace f0bc b0b8 453d 3ee8 a63b 329f a23c
00000150: eb7d d13b 9a3c c1bc f2d0 58bc 61b3 05bd
00000160: c6b1 703c c030 803a ed5a 1cbd 226f bd3d
00000170: 7293 923c 172b 243d caff 683d b324 4c3d
00000180: f34f 41bd 55ae 68be 2cdd df3d 5828 3b3c
00000190: 5aec 303e 3c65 223c 05d9 523e 40ef 793e
000001a0: 6331 413e 4e8b ce3c f5f8 6d3e 0e47 8cbd
000001b0: 65e7 913b c4c0 43bd f941 01be 693f 5b3c
000001c0: d67e 2cbd 8fed 4fbe 65a7 f23d f92d 2c3d
000001d0: 4462 4d3e ba81 2b3d 0664 5e3e 20f4 7a3e
000001e0: 4e6a 6e3e a6b7 c33c 3d33 343e de62 49bd
000001f0: a104 403d 2c35 5a3a 18c1 51be 2a0a 2fbd
-0.025255347 -0.20831789 0.13749221 0.0014955774 0.21823716 0.027543668 0.24695796 0.18148886
0.15354596 0.03880873 0.2304888 -0.06656747 -0.026739255 -0.03106359 -0.21112998 -0.049130525
-0.0457209 0.3266969 0.24505234 -0.014026154 -0.2069857 -0.020129938 -0.24657223 -0.24947262
-0.17169362 0.025997471 -0.26051193 0.32729268 -0.032314394 0.04236069 0.33055848 0.018025909
-0.03837452 0.11042478 0.004779829 0.013486091 0.017496057 -0.0026072972 0.030589515 -0.021546297
-0.0026199138 0.04793543 -0.027517641 0.07915248 -0.02543745 0.002064658 0.034148373 0.038176376
0.013458636 -0.02988008 -0.004226092 0.034652915 0.021101356 -0.005159773 -0.039288122 0.017569954
0.005326146 0.010098588 -0.010902635 0.017747482 0.03275938 0.025853205 -0.0041885544 -0.0054057613
0.014144722 0.024344835 -0.02490231 0.022679236 0.025037901 -0.01262065 -0.0009767505 -0.02221525
0.00857615 -0.027382016 0.014850871 -0.04774351 -0.0150433555 0.023668956 0.0051993355 -0.010709714
-0.02939539 0.048271835 0.0050936034 0.0198513 0.0063931844 -0.023588467 -0.01323341 -0.032641772
0.014690822 0.0009780154 -0.03817265 0.092497125 0.017892573 0.040080156 0.056884564 0.049839687
-0.047195386 -0.22722752 0.10930857 0.011423193 0.17277661 0.0099118315 0.20590599 0.24407673
0.18866496 0.02521291 0.23239501 -0.0684949 0.004452633 -0.047791258 -0.12622823 0.013381817
-0.042113148 -0.20305465 0.11848334 0.04203603 0.20057017 0.041871764 0.21717843 0.24507189
0.2328274 0.023891281 0.17597671 -0.049166553 0.046879414 0.0008323963 -0.20483816 -0.042734303
