dnn/dnn_int8quantized.tflite (tflite, 4352 bytes, 5 tensors)

sequential_2/quant_dense_10/MatMul i1 [4, 16] scale=0.007429274 zero_point=0
-0.044575643 0.074292734 0.007429274 0.007429274 -0.14858547 -0.05943419 0.05200492 0.05200492
-0.20801967 -0.26745385 0.12629765 0.06686346 -0.8989421 -0.5943419 0.05200492 -0.19316112
0.074292734 0.044575643 0.11143911 0.007429274 0.1708733 0.13372692 0.06686346 0.09658056
0.2525953 0.31945878 -0.06686346 0.014858548 0.94351774 0.63891757 0.05200492 0.24516603
-0.074292734 0.037146367 0.037146367 0.06686346 -0.074292734 -0.022287821 -0.014858548 0.037146367
-0.24516603 -0.20059039 0.13372692 0.037146367 -0.9063714 -0.57948333 0.08172201 -0.20059039
-0.029717095 -0.014858548 0.029717095 -0.014858548 0.022287821 0.0 -0.044575643 0.044575643
-0.014858548 -0.037146367 0.014858548 0.0 -0.007429274 -0.044575643 -0.044575643 -0.007429274
00000000: fa0a 0101 ecf8 0707 e4dc 1109 87b0 07e6
00000010: 0a06 0f01 1712 090d 222b f702 7f56 0721
00000020: f605 0509 f6fd fe05 dfe5 1205 86b2 0be5
00000030: fcfe 04fe 0300 fa06 fefb 0200 fffa faff

sequential_2/quant_dense_11/MatMul i1 [8, 4] scale=0.0015440442 zero_point=0
-0.0941867 0.07411412 -0.18528531 -0.024704708 -0.07257008 0.19609362 -0.07411412 0.04014515
-0.15440442 0.06176177 -0.1605806 0.030880885 0.15594848 0.04323324 0.14050803 0.049409416
-0.1605806 0.055585593 -0.14514016 0.03242493 0.10345096 0.030880885 0.16675678 -0.04014515
0.14050803 0.03242493 0.15749252 0.03705706 0.0015440442 -0.026248751 -0.035513017 -0.035513017
00000000: c330 88f0 d17f d01a 9c28 9814 651c 5b20
00000010: 9824 a215 4314 6ce6 5b15 6618 01ef e9e9

sequential_2/quant_dense_12/MatMul i1 [16, 8] scale=0.0018952753 zero_point=0
-0.07581101 0.07581101 -0.05685826 0.09097321 -0.1535173 0.1459362 0.12698345 0.04738188
-0.073915735 0.037905507 -0.1459362 0.10992597 -0.14214565 0.08907794 0.14025037 0.020848028
-0.0037905506 -0.030324405 0.06064881 0.030324405 0.073915735 -0.020848028 -0.011371652 0.041696057
-0.013266928 -0.032219682 0.013266928 -0.024638578 -0.037905507 0.022743303 -0.04738188 0.013266928
0.17057478 0.1914228 0.24069996 0.026533855 0.2217472 0.0075811013 0.034114957 0.041696057
0.18194643 0.1231929 0.18005115 -0.073915735 0.17815588 -0.08149684 -0.04359133 -0.005685826
-0.020848028 0.018952753 -0.045486607 -0.030324405 0.0075811013 -0.037905507 0.034114957 0.005685826
-0.09097321 0.013266928 -0.13835509 0.14025037 -0.1686795 0.15162203 0.15541257 0.041696057
-0.041696057 -0.022743303 0.005685826 0.022743303 0.034114957 -0.03601023 -0.0151622025 0.011371652
0.07202046 0.12698345 -0.03601023 0.12129762 0.0075811013 0.16678423 0.08907794 0.0037905506
-0.06822991 0.0 -0.11182124 0.08149684 -0.062544085 0.1459362 0.11371652 -0.032219682
-0.0037905506 -0.03601023 0.020848028 -0.041696057 0.034114957 0.022743303 -0.045486607 0.017057478
-0.045486607 0.026533855 -0.10992597 0.13645983 -0.15730785 0.12698345 0.1231929 -0.04738188
0.1914228 0.11750707 0.20089918 -0.009476377 0.14783147 -0.04738188 -0.11371652 0.0018952753
-0.020848028 -0.011371652 0.009476377 -0.026533855 -0.032219682 0.041696057 -0.037905507 -0.04359133
-0.0075811013 -0.0037905506 -0.04359133 -0.045486607 -0.02842913 -0.009476377 -0.020848028 -0.017057478
00000000: d828 e230 af4d 4319 d914 b33a b52f 4a0b
00000010: fef0 2010 27f5 fa16 f9ef 07f3 ec0c e707
00000020: 5a65 7f0e 7504 1216 6041 5fd9 5ed5 e9fd
00000030: f50a e8f0 04ec 1203 d007 b74a a750 5216
00000040: eaf4 030c 12ed f806 2643 ed40 0458 2f02
00000050: dc00 c52b df4d 3cef feed 0bea 120c e809
00000060: e80e c648 ad43 41e7 653e 6afb 4ee7 c401
00000070: f5fa 05f2 ef16 ece9 fcfe e9e8 f1fb f5f7

sequential_2/quant_dense_13/MatMul i1 [8, 16] scale=0.001955507 zero_point=0
0.03324362 -0.037154634 -0.027377099 0.001955507 -0.017599564 -0.029332606 -0.003911014 -0.031288113
-0.017599564 0.019555071 -0.001955507 0.011733042 0.0 0.011733042 -0.005866521 -0.001955507
0.15839608 0.17795114 -0.011733042 0.044976663 -0.048887677 -0.15252955 0.027377099 0.13101898
-0.050843183 0.13492998 0.15057404 0.005866521 0.14470753 -0.09386434 -0.035199128 0.003911014
0.15644057 0.117330424 -0.003911014 -0.037154634 -0.003911014 -0.11341941 0.011733042 0.17208463
-0.035199128 0.04106565 0.12515245 0.017599564 0.11928593 -0.101686366 -0.03324362 -0.043021157
0.15644057 0.15448506 0.048887677 -0.019555071 -0.025421591 -0.15448506 0.027377099 0.17990665
-0.001955507 0.117330424 0.17599563 -0.021510579 0.16230708 -0.123196945 -0.027377099 0.011733042
0.017599564 -0.14275202 0.011733042 -0.013688549 0.19163969 0.19750622 0.003911014 -0.117330424
0.001955507 0.06648724 -0.078220285 -0.031288113 -0.078220285 0.21119477 -0.044976663 0.003911014
-0.027377099 -0.027377099 0.019555071 0.011733042 -0.001955507 -0.017599564 -0.048887677 0.013688549
0.025421591 -0.013688549 0.025421591 0.04693217 0.031288113 -0.007822028 0.037154634 0.009777536
-0.009777536 -0.14079651 0.0821313 -0.013688549 0.22683883 0.2483494 0.003911014 -0.13101898
0.04693217 0.101686366 -0.15448506 0.0 -0.052798692 0.23074983 -0.013688549 -0.031288113
0.13297448 0.18577318 0.007822028 0.009777536 -0.015644057 -0.10755289 -0.021510579 0.19750622
-0.013688549 0.07430927 0.17404012 0.048887677 0.097775355 -0.103641875 -0.048887677 0.015644057
00000000: 11ed f201 f7f1 fef0 f70a ff06 0006 fdff
00000010: 515b fa17 e7b2 0e43 e645 4d03 4ad0 ee02
00000020: 503c feed fec6 0658 ee15 4009 3dcc efea
00000030: 504f 19f6 f3b1 0e5c ff3c 5af5 53c1 f206
00000040: 09b7 06f9 6265 02c4 0122 d8f0 d86c e902
00000050: f2f2 0a06 fff7 e707 0df9 0d18 10fc 1305
00000060: fbb8 2af9 747f 02bd 1834 b100 e576 f9f0
00000070: 445f 0405 f8c9 f565 f926 5919 32cb e708

sequential_2/quant_dense_14/MatMul;sequential_2/quant_dense_14/LastValueQuant/FakeQuantWithMinMaxVars i1 [2, 8] scale=0.0019665787 zero_point=0
-0.04129815 -0.1927247 -0.17895865 -0.1651926 0.20452417 0.011799471 0.24975549 -0.16912577
-0.0275321 0.16125944 0.16912577 0.21042392 -0.18289182 -0.0098328935 -0.1848584 0.18682498
00000000: eb9e a5ac 6806 7faa f252 566b a3fb a25f
