dnn/dnn_quantized.tflite (tflite, 4320 bytes, 5 tensors)

sequential_1/quant_dense_5/MatMul i1 [4, 16] scale=0.0078076962 zero_point=0
0	0x0f	0.117115445
1	0xf9	-0.054653876
2	0x09	0.070269264
3	0x04	0.031230785
4	0x17	0.17957701
5	0x06	0.046846177
6	0x11	0.13273084
7	0x0b	0.08588466
8	0x25	0.28888476
9	0x1c	0.2186155
10	0xfa	-0.046846177
11	0x03	0.023423089
12	0x7b	0.96034664
13	0x5e	0.73392344
14	0xff	-0.0078076962
15	0x22	0.26546168
16	0xfd	-0.023423089
17	0x04	0.031230785
18	0xff	-0.0078076962
19	0xfc	-0.031230785
20	0x02	0.0156153925
21	0x00	0.0
22	0x05	0.03903848
23	0xfd	-0.023423089
24	0xfd	-0.023423089
25	0x02	0.0156153925
26	0x03	0.023423089
27	0xfc	-0.031230785
28	0x01	0.0078076962
29	0x04	0.031230785
30	0x04	0.031230785
31	0x05	0.03903848
32	0x05	0.03903848
33	0xf9	-0.054653876
34	0xfc	-0.031230785
35	0xff	-0.0078076962
36	0xfe	-0.0156153925
37	0x03	0.023423089
38	0x06	0.046846177
39	0x00	0.0
40	0xfc	-0.031230785
41	0x02	0.0156153925
42	0xfe	-0.0156153925
43	0xfa	-0.046846177
44	0x01	0.0078076962
45	0xff	-0.0078076962
46	0x01	0.0078076962
47	0xfb	-0.03903848
48	0xf4	-0.093692355
49	0x09	0.070269264
50	0x05	0.03903848
51	0x09	0.070269264
52	0xf3	-0.10150005
53	0x01	0.0078076962
54	0x01	0.0078076962
55	0x03	0.023423089
56	0xdf	-0.25765398
57	0xe3	-0.22642319
58	0x13	0.14834623
59	0x03	0.023423089
60	0x81	-0.99157745
61	0xa4	-0.71830803
62	0x06	0.046846177
63	0xec	-0.15615392

sequential_1/quant_dense_6/MatMul i1 [8, 4] scale=0.0016684842 zero_point=0
0	0xec	-0.033369683
1	0x14	0.033369683
2	0x14	0.033369683
3	0x0a	0.016684841
4	0xeb	-0.03503817
5	0x17	0.038375136
6	0x09	0.015016357
7	0x03	0.005005453
8	0xfd	-0.005005453
9	0xfb	-0.008342421
10	0x04	0.0066739367
11	0xe8	-0.040043622
12	0xf9	-0.0116793895
13	0x08	0.013347873
14	0x03	0.005005453
15	0x7f	0.21189749
16	0x00	0.0
17	0xfc	-0.0066739367
18	0xf9	-0.0116793895
19	0xf1	-0.025027262
20	0x07	0.0116793895
21	0xf0	-0.026695747
22	0xfc	-0.0066739367
23	0x7d	0.20856053
24	0x56	0.14348964
25	0x1b	0.04504907
26	0xe8	-0.040043622
27	0xa8	-0.14682661
28	0xf6	-0.016684841
29	0xfb	-0.008342421
30	0x13	0.0317012
31	0xe9	-0.038375136

sequential_1/quant_dense_7/MatMul i1 [16, 8] scale=0.002041576 zero_point=0
0	0x13	0.038789943
1	0x00	0.0
2	0x08	0.016332608
3	0xfb	-0.01020788
4	0x12	0.03674837
5	0xfd	-0.006124728
6	0xe9	-0.04695625
7	0x15	0.042873096
8	0xfb	-0.01020788
9	0xf6	-0.02041576
10	0xf4	-0.024498912
11	0xa2	-0.19190814
12	0x00	0.0
13	0xd3	-0.09187092
14	0x64	0.20415759
15	0xec	-0.04083152
16	0x11	0.03470679
17	0xf8	-0.016332608
18	0xfe	-0.004083152
19	0x49	0.14903505
20	0xe9	-0.04695625
21	0x6c	0.2204902
22	0x7f	0.25928015
23	0xfc	-0.008166304
24	0x00	0.0
25	0xf6	-0.02041576
26	0xf6	-0.02041576
27	0x00	0.0
28	0x0d	0.026540488
29	0xf9	-0.014291031
30	0xf4	-0.024498912
31	0xe8	-0.048997823
32	0xfc	-0.008166304
33	0xf0	-0.032665215
34	0xff	-0.002041576
35	0x6d	0.22253178
36	0x10	0.032665215
37	0x43	0.1367856
38	0xe4	-0.057164125
39	0x10	0.032665215
40	0x17	0.04695625
41	0x06	0.012249456
42	0x12	0.03674837
43	0xeb	-0.042873096
44	0x0a	0.02041576
45	0x09	0.018374184
46	0xfb	-0.01020788
47	0xf2	-0.028582063
48	0xf6	-0.02041576
49	0xef	-0.03470679
50	0x10	0.032665215
51	0x6c	0.2204902
52	0x04	0.008166304
53	0x53	0.1694508
54	0xde	-0.06941358
55	0xfd	-0.006124728
56	0xf6	-0.02041576
57	0x10	0.032665215
58	0xfc	-0.008166304
59	0x5b	0.18578342
60	0x12	0.03674837
61	0x62	0.20007445
62	0xda	-0.077579886
63	0xef	-0.03470679
64	0xeb	-0.042873096
65	0xff	-0.002041576
66	0x06	0.012249456
67	0x63	0.20211603
68	0xf2	-0.028582063
69	0x48	0.14699347
70	0xe6	-0.053080976
71	0xf7	-0.018374184
72	0x10	0.032665215
73	0xeb	-0.042873096
74	0xf9	-0.014291031
75	0xef	-0.03470679
76	0x00	0.0
77	0xf3	-0.026540488
78	0xf0	-0.032665215
79	0xfa	-0.012249456
80	0x05	0.01020788
81	0x0b	0.022457335
82	0xf7	-0.018374184
83	0x69	0.21436548
84	0xef	-0.03470679
85	0x46	0.14291032
86	0xe2	-0.061247278
87	0x0a	0.02041576
88	0xf3	-0.026540488
89	0xf0	-0.032665215
90	0x02	0.004083152
91	0xb8	-0.14699347
92	0xf9	-0.014291031
93	0xf8	-0.016332608
94	0x77	0.24294753
95	0xf0	-0.032665215
96	0xf9	-0.014291031
97	0x0f	0.030623639
98	0x02	0.004083152
99	0xfb	-0.01020788
100	0x10	0.032665215
101	0xff	-0.002041576
102	0x00	0.0
103	0x07	0.014291031
104	0x12	0.03674837
105	0x00	0.0
106	0x09	0.018374184
107	0x0c	0.024498912
108	0xfd	-0.006124728
109	0xff	-0.002041576
110	0xf3	-0.026540488
111	0x08	0.016332608
112	0xfb	-0.01020788
113	0xe9	-0.04695625
114	0xec	-0.04083152
115	0x9f	-0.19803287
116	0xed	-0.038789943
117	0xd6	-0.08574619
118	0x68	0.2123239
119	0xff	-0.002041576
120	0x06	0.012249456
121	0xee	-0.03674837
122	0xf5	-0.022457335
123	0x12	0.03674837
124	0x08	0.016332608
125	0xfa	-0.012249456
126	0xee	-0.03674837
127	0x18	0.048997823

sequential_1/quant_dense_8/MatMul i1 [8, 16] scale=0.0026028226 zero_point=0
0	0xf6	-0.026028227
1	0xb0	-0.20822582
2	0x35	0.1379496
3	0x01	0.0026028226
4	0x54	0.2186371
5	0x0b	0.028631048
6	0x5f	0.24726816
7	0x46	0.18219759
8	0x3b	0.15356654
9	0x0f	0.03904234
10	0x59	0.23165122
11	0xe6	-0.067673385
12	0xf6	-0.026028227
13	0xf4	-0.031233871
14	0xaf	-0.21082863
15	0xed	-0.04945363
16	0xee	-0.046850808
17	0x7e	0.32795566
18	0x5e	0.24466532
19	0xfb	-0.0130141135
20	0xb0	-0.20822582
21	0xf8	-0.02082258
22	0xa1	-0.24726816
23	0xa0	-0.24987097
24	0xbe	-0.1717863
25	0x0a	0.026028227
26	0x9c	-0.26028225
27	0x7e	0.32795566
28	0xf4	-0.031233871
29	0x10	0.04164516
30	0x7f	0.33055848
31	0x07	0.018219758
32	0xf1	-0.03904234
33	0x2a	0.10931855
34	0x02	0.005205645
35	0x05	0.0130141135
36	0x07	0.018219758
37	0xff	-0.0026028226
38	0x0c	0.031233871
39	0xf8	-0.02082258
40	0xff	-0.0026028226
41	0x12	0.046850808
42	0xf5	-0.028631048
43	0x1e	0.07808468
44	0xf6	-0.026028227
45	0x01	0.0026028226
46	0x0d	0.033836693
47	0x0f	0.03904234
48	0x05	0.0130141135
49	0xf5	-0.028631048
50	0xfe	-0.005205645
51	0x0d	0.033836693
52	0x08	0.02082258
53	0xfe	-0.005205645
54	0xf1	-0.03904234
55	0x07	0.018219758
56	0x02	0.005205645
57	0x04	0.01041129
58	0xfc	-0.01041129
59	0x07	0.018219758
60	0x0d	0.033836693
61	0x0a	0.026028227
62	0xfe	-0.005205645
63	0xfe	-0.005205645
64	0x05	0.0130141135
65	0x09	0.023425404
66	0xf6	-0.026028227
67	0x09	0.023425404
68	0x0a	0.026028227
69	0xfb	-0.0130141135
70	0x00	0.0
71	0xf7	-0.023425404
72	0x03	0.007808468
73	0xf5	-0.028631048
74	0x06	0.015616936
75	0xee	-0.046850808
76	0xfa	-0.015616936
77	0x09	0.023425404
78	0x02	0.005205645
79	0xfc	-0.01041129
80	0xf5	-0.028631048
81	0x13	0.04945363
82	0x02	0.005205645
83	0x08	0.02082258
84	0x02	0.005205645
85	0xf7	-0.023425404
86	0xfb	-0.0130141135
87	0xf3	-0.033836693
88	0x06	0.015616936
89	0x00	0.0
90	0xf1	-0.03904234
91	0x24	0.093701616
92	0x07	0.018219758
93	0x0f	0.03904234
94	0x16	0.057262097
95	0x13	0.04945363
96	0xee	-0.046850808
97	0xa9	-0.22644557
98	0x2a	0.10931855
99	0x04	0.01041129
100	0x42	0.1717863
101	0x04	0.01041129
102	0x4f	0.20562299
103	0x5e	0.24466532
104	0x48	0.18740323
105	0x0a	0.026028227
106	0x59	0.23165122
107	0xe6	-0.067673385
108	0x02	0.005205645
109	0xee	-0.046850808
110	0xd0	-0.124935485
111	0x05	0.0130141135
112	0xf0	-0.04164516
113	0xb2	-0.20302017
114	0x2e	0.11972984
115	0x10	0.04164516
116	0x4d	0.20041734
117	0x10	0.04164516
118	0x53	0.21603428
119	0x5e	0.24466532
120	0x59	0.23165122
121	0x09	0.023425404
122	0x44	0.17699194
123	0xed	-0.04945363
124	0x12	0.046850808
125	0x00	0.0
126	0xb1	-0.20562299
127	0xf0	-0.04164516

sequential_1/quant_dense_9/MatMul;sequential_1/quant_dense_9/LastValueQuant/FakeQuantWithMinMaxVars i1 [2, 8] scale=0.0025733572 zero_point=0
0	0xa6	-0.23160215
1	0x78	0.30880287
2	0x1b	0.06948064
3	0x01	0.0025733572
4	0xf6	-0.025733571
5	0x2a	0.108081006
6	0xa1	-0.24446893
7	0xb5	-0.19300179
8	0x63	0.25476235
9	0x81	-0.32681635
10	0xfa	-0.015440144
11	0x00	0.0
12	0x0f	0.03860036
13	0xdf	-0.08492079
14	0x50	0.20586857
15	0x68	0.26762915
